…
      sampler {
        min_scale: 0.3
        max_scale: 1
        min_aspect_ratio: 0.5
        max_aspect_ratio: 2
      }
      sample_constraint {
        min_jaccard_overlap: 0.9
      }
      max_sample: 1
      max_trials: 50
    }
    batch_sampler {
      sampler {
        min_scale: 0.3
        max_scale: 1
        min_aspect_ratio: 0.5
        max_aspect_ratio: 2
      }
      sample_constraint {
        max_jaccard_overlap: 1
      }
      max_sample: 1
      max_trials: 50
    }
    label_map_file: "data/VOC0712/labelmap_voc.prototxt"
  }
}
layer {
  name: "stem1/conv"
  type: "Convolution"
  bottom: "data"
  top: "stem1/conv"
  convolution_param {
    num_output: 64
    bias_term: false
    pad: 1
    kernel_size: 3
    stride: 2
    weight_filler {
      type: "xavier"
    }
    bias_filler {
      type: "constant"
    }
    dilation: 1
  }
}
layer {
  name: "stem1/bn"
  type: "BatchNorm"
  bottom: "stem1/conv"
  top: "stem1/conv"
}
layer {
  name: "stem1/scale"
  type: "Scale"
  bottom: "stem1/conv"
  top: "stem1/conv"
  scale_param {
    filler {
      value: 1
    }
    bias_term: true
    bias_filler {
      value: 0
    }
  }
}
layer {
  name: "stem1/relu"
  type: "ReLU"
  bottom: "stem1/conv"
  top: "stem1/conv"
}
layer {
  name: "stem2/conv"
  type: "Convolution"
  bottom: "stem1/conv"
  top: "stem2/conv"
  convolution_param {
    num_output: 64
    bias_term: false
    pad: 1
    kernel_size: 3
    stride: 1
    weight_filler {
      type: "xavier"
    }
    bias_filler {
      type: "constant"
    }
    dilation: 1
  }
}
layer {
  name: "stem2/bn"
  type: "BatchNorm"
  bottom: "stem2/conv"
  top: "stem2/conv"
}
layer {
  name: "stem2/scale"
  type: "Scale"
  bottom: "stem2/conv"
  top: "stem2/conv"
  scale_param {
    filler {
      value: 1
    }
    bias_term: true
    bias_filler {
      value: 0
    }
  }
}
layer {
  name: "stem2/relu"
  type: "ReLU"
  bottom: "stem2/conv"
  top: "stem2/conv"
}
layer {
  name: "stem3/conv"
  type: "Convolution"
  bottom: "stem2/conv"
  top: "stem3/conv"
  convolution_param {
    num_output: 128
    bias_term: false
    pad: 1
    kernel_size: 3
    stride: 1
    weight_filler {
      type: "xavier"
    }
    bias_filler {
      type: "constant"
    }
    dilation: 1
  }
}
layer {
  name: "stem3/bn"
  type: "BatchNorm"
  bottom: "stem3/conv"
  top: "stem3/conv"
}
layer {
  name: "stem3/scale"
  type: "Scale"
  bottom: "stem3/conv"
  top: "stem3/conv"
  scale_param {
    filler {
      value: 1
    }
    bias_term: true
    bias_filler {
      value: 0
    }
  }
}
layer {
  name: "stem3/relu"
  type: "ReLU"
  bottom: "stem3/conv"
  top: "stem3/conv"
}
layer {
  name: "Pooling1"
  type: "Pooling"
  bottom: "stem3/conv"
  top: "Pooling1"
  pooling_param {
    pool: MAX
    kernel_size: 3
    stride: 2
  }
}
layer {
  name: "DiverseBlock2a/conv"
  type: "Convolution"
  bottom: "Pooling1"
  top: "DiverseBlock2a/conv"
  convolution_param {
    num_output: 128
    bias_term: false
    pad: 1
    kernel_size: 3
    stride: 1
    weight_filler {
      type: "xavier"
    }
    bias_filler {
      type: "constant"
    }
    dilation: 1
  }
}
layer {
  name: "DiverseBlock2a/bn"
  type: "BatchNorm"
  bottom: "DiverseBlock2a/conv"
  top: "DiverseBlock2a/conv"
}
layer {
  name: "DiverseBlock2a/scale"
  type: "Scale"
  bottom: "DiverseBlock2a/conv"
  top: "DiverseBlock2a/conv"
  scale_param {
    filler {
      value: 1
    }
    bias_term: true
    bias_filler {
      value: 0
    }
  }
}
layer {
  name: "DiverseBlock2a/relu"
  type: "ReLU"
  bottom: "DiverseBlock2a/conv"
  top: "DiverseBlock2a/conv"
}
layer {
  name: "DiverseBlock2b/conv"
  type: "Convolution"
  bottom: "DiverseBlock2a/conv"
  top: "DiverseBlock2b/conv"
  convolution_param {
    num_output: 128
    bias_term: false
    pad: 1
    kernel_size: 3
    stride: 1
    weight_filler {
      type: "xavier"
    }
    bias_filler {
      type: "constant"
    }
    dilation: 1
  }
}
layer {
  name: "DiverseBlock2b/bn"
  type: "BatchNorm"
  bottom: "DiverseBlock2b/conv"
  top: "DiverseBlock2b/conv"
}
layer {
  name: "DiverseBlock2b/scale"
  type: "Scale"
  bottom: "DiverseBlock2b/conv"
  top: "DiverseBlock2b/conv"
  scale_param {
    filler {
      value: 1
    }
    bias_term: true
    bias_filler {
      value: 0
    }
  }
}
layer {
  name: "DiverseBlock2b/relu"
  type: "ReLU"
  bottom: "DiverseBlock2b/conv"
  top: "DiverseBlock2b/conv"
}
layer {
  name: "DiverseBlock2c/conv"
  type: "Convolution"
  bottom: "DiverseBlock2b/conv"
  top: "DiverseBlock2c/conv"
  convolution_param {
    num_output: 128
    bias_term: false
    pad: 1
    kernel_size: 3
    stride: 1
    weight_filler {
      type: "xavier"
    }
    bias_filler {
      type: "constant"
    }
    dilation: 1
  }
}
layer {
  name: "DiverseBlock2c/bn"
  type: "BatchNorm"
  bottom: "DiverseBlock2c/conv"
  top: "DiverseBlock2c/conv"
}
layer {
  name: "DiverseBlock2c/scale"
  type: "Scale"
  bottom: "DiverseBlock2c/conv"
  top: "DiverseBlock2c/conv"
  scale_param {
    filler {
      value: 1
    }
    bias_term: true
    bias_filler {
      value: 0
    }
  }
}
layer {
  name: "DiverseBlock2c/relu"
  type: "ReLU"
  bottom: "DiverseBlock2c/conv"
  top: "DiverseBlock2c/conv"
}
layer {
  name: "DiverseBlock2d/conv"
  type: "Convolution"
  bottom: "DiverseBlock2c/conv"
  top: "DiverseBlock2d/conv"
  convolution_param {
    num_output: 128
    bias_term: false
    pad: 1
    kernel_size: 3
    stride: 1
    weight_filler {
      type: "xavier"
    }
    bias_filler {
      type: "constant"
    }
    dilation: 1
  }
}
layer {
  name: "DiverseBlock2d/bn"
  type: "BatchNorm"
  bottom: "DiverseBlock2d/conv"
  top: "DiverseBlock2d/conv"
}
layer {
  name: "DiverseBlock2d/scale"
  type: "Scale"
  bottom: "DiverseBlock2d/conv"
  top: "DiverseBlock2d/conv"
  scale_param {
    filler {
      value: 1
    }
    bias_term: true
    bias_filler {
      value: 0
    }
  }
}
layer {
  name: "DiverseBlock2d/relu"
  type: "ReLU"
  bottom: "DiverseBlock2d/conv"
  top: "DiverseBlock2d/conv"
}
layer {
  name: "DiverseBlock2e/conv"
  type: "Convolution"
  bottom: "DiverseBlock2d/conv"
  top: "DiverseBlock2e/conv"
  convolution_param {
    num_output: 128
    bias_term: false
    pad: 1
    kernel_size: 3
    stride: 1
    weight_filler {
      type: "xavier"
    }
    bias_filler {
      type: "constant"
    }
    dilation: 1
  }
}
layer {
  name: "DiverseBlock2e/bn"
  type: "BatchNorm"
  bottom: "DiverseBlock2e/conv"
  top: "DiverseBlock2e/conv"
}
layer {
  name: "DiverseBlock2e/scale"
  type: "Scale"
  bottom: "DiverseBlock2e/conv"
  top: "DiverseBlock2e/conv"
  scale_param {
    filler {
      value: 1
    }
    bias_term: true
    bias_filler {
      value: 0
    }
  }
}
layer {
  name: "DiverseBlock2e/relu"
  type: "ReLU"
  bottom: "DiverseBlock2e/conv"
  top: "DiverseBlock2e/conv"
}
layer {
  name: "Transition2/concat"
  type: "Concat"
  bottom: "Pooling1"
  bottom: "DiverseBlock2a/conv"
  bottom: "DiverseBlock2b/conv"
  bottom: "DiverseBlock2c/conv"
  bottom: "DiverseBlock2d/conv"
  bottom: "DiverseBlock2e/conv"
  top: "Transition2/concat"
  concat_param {
    axis: 1
  }
}
layer {
  name: "Transition2/conv"
  type: "Convolution"
  bottom: "Transition2/concat"
  top: "Transition2/conv"
  convolution_param {
    num_output: 256
    bias_term: false
    pad: 0
    kernel_size: 1
    stride: 1
    weight_filler {
      type: "xavier"
    }
    bias_filler {
      type: "constant"
    }
    dilation: 1
  }
}
layer {
  name: "Transition2/bn"
  type: "BatchNorm"
  bottom: "Transition2/conv"
  top: "Transition2/conv"
}
layer {
  name: "Transition2/scale"
  type: "Scale"
  bottom: "Transition2/conv"
  top: "Transition2/conv"
  scale_param {
    filler {
      value: 1
    }
    bias_term: true
    bias_filler {
      value: 0
    }
  }
}
layer {
  name: "Transition2/relu"
  type: "ReLU"
  bottom: "Transition2/conv"
  top: "Transition2/conv"
}
layer {
  name: "Transition2/pooling"
  type: "Pooling"
  bottom: "Transition2/conv"
  top: "Transition2/pooling"
  pooling_param {
    pool: MAX
    kernel_size: 3
    stride: 2
  }
}
layer {
  name: "DiverseBlock3a/conv"
  type: "Convolution"
  bottom: "Transition2/pooling"
  top: "DiverseBlock3a/conv"
  convolution_param {
    num_output: 160
    bias_term: false
    pad: 1
    kernel_size: 3
    stride: 1
    weight_filler {
      type: "xavier"
    }
    bias_filler {
      type: "constant"
    }
    dilation: 1
  }
}
layer {
  name: "DiverseBlock3a/bn"
  type: "BatchNorm"
  bottom: "DiverseBlock3a/conv"
  top: "DiverseBlock3a/conv"
}
layer {
  name: "DiverseBlock3a/scale"
  type: "Scale"
  bottom: "DiverseBlock3a/conv"
  top: "DiverseBlock3a/conv"
  scale_param {
    filler {
      value: 1
    }
    bias_term: true
    bias_filler {
      value: 0
    }
  }
}
layer {
  name: "DiverseBlock3a/relu"
  type: "ReLU"
  bottom: "DiverseBlock3a/conv"
  top: "DiverseBlock3a/conv"
}
layer {
  name: "DiverseBlock3b/conv"
  type: "Convolution"
  bottom: "DiverseBlock3a/conv"
  top: "DiverseBlock3b/conv"
  convolution_param {
    num_output: 160
    bias_term: false
    pad: 1
    kernel_size: 3
    stride: 1
    weight_filler {
      type: "xavier"
    }
    bias_filler {
      type: "constant"
    }
    dilation: 1
  }
}
layer {
  name: "DiverseBlock3b/bn"
  type: "BatchNorm"
  bottom: "DiverseBlock3b/conv"
  top: "DiverseBlock3b/conv"
}
layer {
  name: "DiverseBlock3b/scale"
  type: "Scale"
  bottom: "DiverseBlock3b/conv"
  top: "DiverseBlock3b/conv"
  scale_param {
    filler {
      value: 1
    }
    bias_term: true
    bias_filler {
      value: 0
    }
  }
}
layer {
  name: "DiverseBlock3b/relu"
  type: "ReLU"
  bottom: "DiverseBlock3b/conv"
  top: "DiverseBlock3b/conv"
}
layer {
  name: "DiverseBlock3c/conv"
  type: "Convolution"
  bottom: "DiverseBlock3b/conv"
  top: "DiverseBlock3c/conv"
  convolution_param {
    num_output: 160
    bias_term: false
    pad: 1
    kernel_size: 3
    stride: 1
    weight_filler {
      type: "xavier"
    }
    bias_filler {
      type: "constant"
    }
    dilation: 1
  }
}
layer {
  name: "DiverseBlock3c/bn"
  type: "BatchNorm"
  bottom: "DiverseBlock3c/conv"
  top: "DiverseBlock3c/conv"
}
layer {
  name: "DiverseBlock3c/scale"
  type: "Scale"
  bottom: "DiverseBlock3c/conv"
  top: "DiverseBlock3c/conv"
  scale_param {
    filler {
      value: 1
    }
    bias_term: true
    bias_filler {
      value: 0
    }
  }
}
layer {
  name: "DiverseBlock3c/relu"
  type: "ReLU"
  bottom: "DiverseBlock3c/conv"
  top: "DiverseBlock3c/conv"
}
layer {
  name: "DiverseBlock3d/conv"
  type: "Convolution"
  bottom: "DiverseBlock3c/conv"
  top: "DiverseBlock3d/conv"
  convolution_param {
    num_output: 160
    bias_term: false
    pad: 1
    kernel_size: 3
    stride: 1
    weight_filler {
      type: "xavier"
    }
    bias_filler {
      type: "constant"
    }
    dilation: 1
  }
}
layer {
  name: "DiverseBlock3d/bn"
  type: "BatchNorm"
  bottom: "DiverseBlock3d/conv"
  top: "DiverseBlock3d/conv"
}
layer {
  name: "DiverseBlock3d/scale"
  type: "Scale"
  bottom: "DiverseBlock3d/conv"
  top: "DiverseBlock3d/conv"
  scale_param {
    filler {
      value: 1
    }
    bias_term: true
    bias_filler {
      value: 0
    }
  }
}
layer {
  name: "DiverseBlock3d/relu"
  type: "ReLU"
  bottom: "DiverseBlock3d/conv"
  top: "DiverseBlock3d/conv"
}
layer {
  name: "DiverseBlock3e/conv"
  type: "Convolution"
  bottom: "DiverseBlock3d/conv"
  top: "DiverseBlock3e/conv"
  convolution_param {
    num_output: 160
    bias_term: false
    pad: 1
    kernel_size: 3
    stride: 1
    weight_filler {
      type: "xavier"
    }
    bias_filler {
      type: "constant"
    }
    dilation: 1
  }
}
layer {
  name: "DiverseBlock3e/bn"
  type: "BatchNorm"
  bottom: "DiverseBlock3e/conv"
  top: "DiverseBlock3e/conv"
}
layer {
  name: "DiverseBlock3e/scale"
  type: "Scale"
  bottom: "DiverseBlock3e/conv"
  top: "DiverseBlock3e/conv"
  scale_param {
    filler {
      value: 1
    }
    bias_term: true
    bias_filler {
      value: 0
    }
  }
}
layer {
  name: "DiverseBlock3e/relu"
  type: "ReLU"
  bottom: "DiverseBlock3e/conv"
  top: "DiverseBlock3e/conv"
}
layer {
  name: "Transition3/concat"
  type: "Concat"
  bottom: "Transition2/pooling"
  bottom: "DiverseBlock3a/conv"
  bottom: "DiverseBlock3b/conv"
  bottom: "DiverseBlock3c/conv"
  bottom: "DiverseBlock3d/conv"
  bottom: "DiverseBlock3e/conv"
  top: "Transition3/concat"
  concat_param {
    axis: 1
  }
}
layer {
  name: "Transition3/conv"
  type: "Convolution"
  bottom: "Transition3/concat"
  top: "Transition3/conv"
  convolution_param {
    num_output: 512
    bias_term: false
    pad: 0
    kernel_size: 1
    stride: 1
    weight_filler {
      type: "xavier"
    }
    bias_filler {
      type: "constant"
    }
    dilation: 1
  }
}
layer {
  name: "Transition3/bn"
  type: "BatchNorm"
  bottom: "Transition3/conv"
  top: "Transition3/conv"
}
layer {
  name: "Transition3/scale"
  type: "Scale"
  bottom: "Transition3/conv"
  top: "Transition3/conv"
  scale_param {
    filler {
      value: 1
    }
    bias_term: true
    bias_filler {
      value: 0
    }
  }
}
layer {
  name: "Transition3/relu"
  type: "ReLU"
  bottom: "Transition3/conv"
  top: "Transition3/conv"
}
layer {
  name: "Transition3/pooling"
  type: "Pooling"
  bottom: "Transition3/conv"
  top: "Transition3/pooling"
  pooling_param {
    pool: MAX
    kernel_size: 3
    stride: 2
  }
}
layer {
  name: "DiverseBlock4a/conv"
  type: "Convolution"
  bottom: "Transition3/pooling"
  top: "DiverseBlock4a/conv"
  convolution_param {
    num_output: 192
    bias_term: false
    pad: 1
    kernel_size: 3
    stride: 1
    weight_filler {
      type: "xavier"
    }
    bias_filler {
      type: "constant"
    }
    dilation: 1
  }
}
layer {
  name: "DiverseBlock4a/bn"
  type: "BatchNorm"
  bottom: "DiverseBlock4a/conv"
  top: "DiverseBlock4a/conv"
}
layer {
  name: "DiverseBlock4a/scale"
  type: "Scale"
  bottom: "DiverseBlock4a/conv"
  top: "DiverseBlock4a/conv"
  scale_param {
    filler {
      value: 1
    }
    bias_term: true
    bias_filler {
      value: 0
    }
  }
}
layer {
  name: "DiverseBlock4a/relu"
  type: "ReLU"
  bottom: "DiverseBlock4a/conv"
  top: "DiverseBlock4a/conv"
}
layer {
  name: "DiverseBlock4b/conv"
  type: "Convolution"
  bottom: "DiverseBlock4a/conv"
  top: "DiverseBlock4b/conv"
  convolution_param {
    num_output: 192
    bias_term: false
    pad: 1
    kernel_size: 3
    stride: 1
    weight_filler {
      type: "xavier"
    }
    bias_filler {
      type: "constant"
    }
    dilation: 1
  }
}
layer {
  name: "DiverseBlock4b/bn"
  type: "BatchNorm"
  bottom: "DiverseBlock4b/conv"
  top: "DiverseBlock4b/conv"
}
layer {
  name: "DiverseBlock4b/scale"
  type: "Scale"
  bottom: "DiverseBlock4b/conv"
  top: "DiverseBlock4b/conv"
  scale_param {
    filler {
      value: 1
    }
    bias_term: true
    bias_filler {
      value: 0
    }
  }
}
layer {
  name: "DiverseBlock4b/relu"
  type: "ReLU"
  bottom: "DiverseBlock4b/conv"
  top: "DiverseBlock4b/conv"
}
layer {
  name: "DiverseBlock4c/conv"
  type: "Convolution"
  bottom: "DiverseBlock4b/conv"
  top: "DiverseBlock4c/conv"
  convolution_param {
    num_output: 192
    bias_term: false
    pad: 1
    kernel_size: 3
    stride: 1
    weight_filler {
      type: "xavier"
    }
    bias_filler {
      type: "constant"
    }
    dilation: 1
  }
}
layer {
  name: "DiverseBlock4c/bn"
  type: "BatchNorm"
  bottom: "DiverseBlock4c/conv"
  top: "DiverseBlock4c/conv"
}
layer {
  name: "DiverseBlock4c/scale"
  type: "Scale"
  bottom: "DiverseBlock4c/conv"
  top: "DiverseBlock4c/conv"
  scale_param {
    filler {
      value: 1
    }
    bias_term: true
    bias_filler {
      value: 0
    }
  }
}
layer {
  name: "DiverseBlock4c/relu"
  type: "ReLU"
  bottom: "DiverseBlock4c/conv"
  top: "DiverseBlock4c/conv"
}
layer {
  name: "DiverseBlock4d/conv"
  type: "Convolution"
  bottom: "DiverseBlock4c/conv"
  top: "DiverseBlock4d/conv"
  convolution_param {
    num_output: 192
    bias_term: false
    pad: 1
    kernel_size: 3
    stride: 1
    weight_filler {
      type: "xavier"
    }
    bias_filler {
      type: "constant"
    }
    dilation: 1
  }
}
layer {
  name: "DiverseBlock4d/bn"
  type: "BatchNorm"
  bottom: "DiverseBlock4d/conv"
  top: "DiverseBlock4d/conv"
}
layer {
  name: "DiverseBlock4d/scale"
  type: "Scale"
  bottom: "DiverseBlock4d/conv"
  top: "DiverseBlock4d/conv"
  scale_param {
    filler {
      value: 1
    }
    bias_term: true
    bias_filler {
      value: 0
    }
  }
}
layer {
  name: "DiverseBlock4d/relu"
  type: "ReLU"
  bottom: "DiverseBlock4d/conv"
  top: "DiverseBlock4d/conv"
}
layer {
  name: "DiverseBlock4e/conv"
  type: "Convolution"
  bottom: "DiverseBlock4d/conv"
  top: "DiverseBlock4e/conv"
  convolution_param {
    num_output: 192
    bias_term: false
    pad: 1
    kernel_size: 3
    stride: 1
    weight_filler {
      type: "xavier"
    }
    bias_filler {
      type: "constant"
    }
    dilation: 1
  }
}
layer {
  name: "DiverseBlock4e/bn"
  type: "BatchNorm"
  bottom: "DiverseBlock4e/conv"
  top: "DiverseBlock4e/conv"
}
layer {
  name: "DiverseBlock4e/scale"
  type: "Scale"
  bottom: "DiverseBlock4e/conv"
  top: "DiverseBlock4e/conv"
  scale_param {
    filler {
      value: 1
    }
    bias_term: true
    bias_filler {
      value: 0
    }
  }
}
layer {
  name: "DiverseBlock4e/relu"
  type: "ReLU"
  bottom: "DiverseBlock4e/conv"
  top: "DiverseBlock4e/conv"
}
layer {
  name: "Transition4A/concat"
  type: "Concat"
  bottom: "Transition3/pooling"
  bottom: "DiverseBlock4a/conv"
  bottom: "DiverseBlock4b/conv"
  bottom: "DiverseBlock4c/conv"
  bottom: "DiverseBlock4d/conv"
  bottom: "DiverseBlock4e/conv"
  top: "Transition4A/concat"
  concat_param {
    axis: 1
  }
}
layer {
  name: "Transition4A/conv"
  type: "Convolution"
  bottom: "Transition4A/concat"
  top: "Transition4A/conv"
  convolution_param {
    num_output: 768
    bias_term: false
    pad: 0
    kernel_size: 1
    stride: 1
    weight_filler {
      type: "xavier"
    }
    bias_filler {
      type: "constant"
    }
    dilation: 1
  }
}
layer {
  name: "Transition4A/bn"
  type: "BatchNorm"
  bottom: "Transition4A/conv"
  top: "Transition4A/conv"
}
layer {
  name: "Transition4A/scale"
  type: "Scale"
  bottom: "Transition4A/conv"
  top: "Transition4A/conv"
  scale_param {
    filler {
      value: 1
    }
    bias_term: true
    bias_filler {
      value: 0
    }
  }
}
layer {
  name: "Transition4A/relu"
  type: "ReLU"
  bottom: "Transition4A/conv"
  top: "Transition4A/conv"
}
layer {
  name: "DiverseBlock4f/conv"
  type: "Convolution"
  bottom: "Transition4A/conv"
  top: "DiverseBlock4f/conv"
  convolution_param {
    num_output: 192
    bias_term: false
    pad: 1
    kernel_size: 3
    stride: 1
    weight_filler {
      type: "xavier"
    }
    bias_filler {
      type: "constant"
    }
    dilation: 1
  }
}
layer {
  name: "DiverseBlock4f/bn"
  type: "BatchNorm"
  bottom: "DiverseBlock4f/conv"
  top: "DiverseBlock4f/conv"
}
layer {
  name: "DiverseBlock4f/scale"
  type: "Scale"
  bottom: "DiverseBlock4f/conv"
  top: "DiverseBlock4f/conv"
  scale_param {
    filler {
      value: 1
    }
    bias_term: true
    bias_filler {
      value: 0
    }
  }
}
layer {
  name: "DiverseBlock4f/relu"
  type: "ReLU"
  bottom: "DiverseBlock4f/conv"
  top: "DiverseBlock4f/conv"
}
layer {
  name: "DiverseBlock4g/conv"
  type: "Convolution"
  bottom: "DiverseBlock4f/conv"
  top: "DiverseBlock4g/conv"
  convolution_param {
    num_output: 192
    bias_term: false
    pad: 1
    kernel_size: 3
    stride: 1
    weight_filler {
      type: "xavier"
    }
    bias_filler {
      type: "constant"
    }
    dilation: 1
  }
}
layer {
  name: "DiverseBlock4g/bn"
  type: "BatchNorm"
  bottom: "DiverseBlock4g/conv"
  top: "DiverseBlock4g/conv"
}
layer {
  name: "DiverseBlock4g/scale"
  type: "Scale"
  bottom: "DiverseBlock4g/conv"
  top: "DiverseBlock4g/conv"
  scale_param {
    filler {
      value: 1
    }
    bias_term: true
    bias_filler {
      value: 0
    }
  }
}
layer {
  name: "DiverseBlock4g/relu"
  type: "ReLU"
  bottom: "DiverseBlock4g/conv"
  top: "DiverseBlock4g/conv"
}
layer {
  name: "DiverseBlock4h/conv"
  type: "Convolution"
  bottom: "DiverseBlock4g/conv"
  top: "DiverseBlock4h/conv"
  convolution_param {
    num_output: 192
    bias_term: false
    pad: 1
    kernel_size: 3
    stride: 1
    weight_filler {
      type: "xavier"
    }
    bias_filler {
      type: "constant"
    }
    dilation: 1
  }
}
layer {
  name: "DiverseBlock4h/bn"
  type: "BatchNorm"
  bottom: "DiverseBlock4h/conv"
  top: "DiverseBlock4h/conv"
}
layer {
  name: "DiverseBlock4h/scale"
  type: "Scale"
  bottom: "DiverseBlock4h/conv"
  top: "DiverseBlock4h/conv"
  scale_param {
    filler {
      value: 1
    }
    bias_term: true
    bias_filler {
      value: 0
    }
  }
}
layer {
  name: "DiverseBlock4h/relu"
  type: "ReLU"
  bottom: "DiverseBlock4h/conv"
  top: "DiverseBlock4h/conv"
}
layer {
  name: "DiverseBlock4i/conv"
  type: "Convolution"
  bottom: "DiverseBlock4h/conv"
  top: "DiverseBlock4i/conv"
  convolution_param {
    num_output: 192
    bias_term: false
    pad: 1
    kernel_size: 3
    stride: 1
    weight_filler {
      type: "xavier"
    }
    bias_filler {
      type: "constant"
    }
    dilation: 1
  }
}
layer {
  name: "DiverseBlock4i/bn"
  type: "BatchNorm"
  bottom: "DiverseBlock4i/conv"
  top: "DiverseBlock4i/conv"
}
layer {
  name: "DiverseBlock4i/scale"
  type: "Scale"
  bottom: "DiverseBlock4i/conv"
  top: "DiverseBlock4i/conv"
  scale_param {
    filler {
      value: 1
    }
    bias_term: true
    bias_filler {
      value: 0
    }
  }
}
layer {
  name: "DiverseBlock4i/relu"
  type: "ReLU"
  bottom: "DiverseBlock4i/conv"
  top: "DiverseBlock4i/conv"
}
layer {
  name: "DiverseBlock4j/conv"
  type: "Convolution"
  bottom: "DiverseBlock4i/conv"
  top: "DiverseBlock4j/conv"
  convolution_param {
    num_output: 192
    bias_term: false
    pad: 1
    kernel_size: 3
    stride: 1
    weight_filler {
      type: "xavier"
    }
    bias_filler {
      type: "constant"
    }
    dilation: 1
  }
}
layer {
  name: "DiverseBlock4j/bn"
  type: "BatchNorm"
  bottom: "DiverseBlock4j/conv"
  top: "DiverseBlock4j/conv"
}
layer {
  name: "DiverseBlock4j/scale"
  type: "Scale"
  bottom: "DiverseBlock4j/conv"
  top: "DiverseBlock4j/conv"
  scale_param {
    filler {
      value: 1
    }
    bias_term: true
    bias_filler {
      value: 0
    }
  }
}
layer {
  name: "DiverseBlock4j/relu"
  type: "ReLU"
  bottom: "DiverseBlock4j/conv"
  top: "DiverseBlock4j/conv"
}
layer {
  name: "Transition4B/concat"
  type: "Concat"
  bottom: "Transition4A/conv"
  bottom: "DiverseBlock4f/conv"
  bottom: "DiverseBlock4g/conv"
  bottom: "DiverseBlock4h/conv"
  bottom: "DiverseBlock4i/conv"
  bottom: "DiverseBlock4j/conv"
  top: "Transition4B/concat"
  concat_param {
    axis: 1
  }
}
layer {
  name: "Transition4B/conv"
  type: "Convolution"
  bottom: "Transition4B/concat"
  top: "Transition4B/conv"
  convolution_param {
    num_output: 768
    bias_term: false
    pad: 0
    kernel_size: 1
    stride: 1
    weight_filler {
      type: "xavier"
    }
    bias_filler {
      type: "constant"
    }
    dilation: 1
  }
}
layer {
  name: "Transition4B/bn"
  type: "BatchNorm"
  bottom: "Transition4B/conv"
  top: "Transition4B/conv"
}
layer {
  name: "Transition4B/scale"
  type: "Scale"
  bottom: "Transition4B/conv"
  top: "Transition4B/conv"
  scale_param {
    filler {
      value: 1
    }
    bias_term: true
    bias_filler {
      value: 0
    }
  }
}
layer {
  name: "Transition4B/relu"
  type: "ReLU"
  bottom: "Transition4B/conv"
  top: "Transition4B/conv"
}
layer {
  name: "Transition4B/pooling"
  type: "Pooling"
  bottom: "Transition4B/conv"
  top: "Transition4B/pooling"
  pooling_param {
    pool: MAX
    kernel_size: 3
    stride: 2
  }
}
layer {
  name: "DiverseBlock5a/conv"
  type: "Convolution"
  bottom: "Transition4B/pooling"
  top: "DiverseBlock5a/conv"
  convolution_param {
    num_output: 224
    bias_term: false
    pad: 1
    kernel_size: 3
    stride: 1
    weight_filler {
      type: "xavier"
    }
    bias_filler {
      type: "constant"
    }
    dilation: 1
  }
}
layer {
  name: "DiverseBlock5a/bn"
  type: "BatchNorm"
  bottom: "DiverseBlock5a/conv"
  top: "DiverseBlock5a/conv"
}
layer {
  name: "DiverseBlock5a/scale"
  type: "Scale"
  bottom: "DiverseBlock5a/conv"
  top: "DiverseBlock5a/conv"
  scale_param {
    filler {
      value: 1
    }
    bias_term: true
    bias_filler {
      value: 0
    }
  }
}
layer {
  name: "DiverseBlock5a/relu"
  type: "ReLU"
  bottom: "DiverseBlock5a/conv"
  top: "DiverseBlock5a/conv"
}
layer {
  name: "DiverseBlock5b/conv"
  type: "Convolution"
  bottom: "DiverseBlock5a/conv"
  top: "DiverseBlock5b/conv"
  convolution_param {
    num_output: 224
    bias_term: false
    pad: 1
    kernel_size: 3
    stride: 1
    weight_filler {
      type: "xavier"
    }
    bias_filler {
      type: "constant"
    }
    dilation: 1
  }
}
layer {
  name: "DiverseBlock5b/bn"
  type: "BatchNorm"
  bottom: "DiverseBlock5b/conv"
  top: "DiverseBlock5b/conv"
}
layer {
  name: "DiverseBlock5b/scale"
  type: "Scale"
  bottom: "DiverseBlock5b/conv"
  top: "DiverseBlock5b/conv"
  scale_param {
    filler {
      value: 1
    }
    bias_term: true
    bias_filler {
      value: 0
    }
  }
}
layer {
  name: "DiverseBlock5b/relu"
  type: "ReLU"
  bottom: "DiverseBlock5b/conv"
  top: "DiverseBlock5b/conv"
}
layer {
  name: "DiverseBlock5c/conv"
  type: "Convolution"
  bottom: "DiverseBlock5b/conv"
  top: "DiverseBlock5c/conv"
  convolution_param {
    num_output: 224
    bias_term: false
    pad: 1
    kernel_size: 3
    stride: 1
    weight_filler {
      type: "xavier"
    }
    bias_filler {
      type: "constant"
    }
    dilation: 1
  }
}
layer {
  name: "DiverseBlock5c/bn"
  type: "BatchNorm"
  bottom: "DiverseBlock5c/conv"
  top: "DiverseBlock5c/conv"
}
layer {
  name: "DiverseBlock5c/scale"
  type: "Scale"
  bottom: "DiverseBlock5c/conv"
  top: "DiverseBlock5c/conv"
  scale_param {
    filler {
      value: 1
    }
    bias_term: true
    bias_filler {
      value: 0
    }
  }
}
layer {
  name: "DiverseBlock5c/relu"
  type: "ReLU"
  bottom: "DiverseBlock5c/conv"
  top: "DiverseBlock5c/conv"
}
layer {
  name: "DiverseBlock5d/conv"
  type: "Convolution"
  bottom: "DiverseBlock5c/conv"
  top: "DiverseBlock5d/conv"
  convolution_param {
    num_output: 224
    bias_term: false
    pad: 1
    kernel_size: 3
    stride: 1
    weight_filler {
      type: "xavier"
    }
    bias_filler {
      type: "constant"
    }
    dilation: 1
  }
}
layer {
  name: "DiverseBlock5d/bn"
  type: "BatchNorm"
  bottom: "DiverseBlock5d/conv"
  top: "DiverseBlock5d/conv"
}
layer {
  name: "DiverseBlock5d/scale"
  type: "Scale"
  bottom: "DiverseBlock5d/conv"
  top: "DiverseBlock5d/conv"
  scale_param {
    filler {
      value: 1
    }
    bias_term: true
    bias_filler {
      value: 0
    }
  }
}
layer {
  name: "DiverseBlock5d/relu"
  type: "ReLU"
  bottom: "DiverseBlock5d/conv"
  top: "DiverseBlock5d/conv"
}
layer {
  name: "DiverseBlock5e/conv"
  type: "Convolution"
  bottom: "DiverseBlock5d/conv"
  top: "DiverseBlock5e/conv"
  convolution_param {
    num_output: 224
    bias_term: false
    pad: 1
    kernel_size: 3
    stride: 1
    weight_filler {
      type: "xavier"
    }
    bias_filler {
      type: "constant"
    }
    dilation: 1
  }
}
layer {
  name: "DiverseBlock5e/bn"
  type: "BatchNorm"
  bottom: "DiverseBlock5e/conv"
  top: "DiverseBlock5e/conv"
}
layer {
  name: "DiverseBlock5e/scale"
I1106 20:09:58.055982 19047 layer_factory.hpp:77] Creating layer data
I1106 20:09:58.056587 19047 net.cpp:100] Creating Layer data
I1106 20:09:58.056609 19047 net.cpp:408] data -> data
I1106 20:09:58.056700 19047 net.cpp:408] data -> label
I1106 20:09:58.059381 19061 db_lmdb.cpp:35] Opened lmdb /home/ywlee/data/VOCdevkit/VOC0712/lmdb/VOC0712_trainval_lmdb
I1106 20:09:58.081713 19047 annotated_data_layer.cpp:62] output data size: 8,3,320,320
I1106 20:09:58.101253 19047 net.cpp:150] Setting up data
I1106 20:09:58.101289 19047 net.cpp:157] Top shape: 8 3 320 320 (2457600)
I1106 20:09:58.101296 19047 net.cpp:157] Top shape: 1 1 3 8 (24)
I1106 20:09:58.101301 19047 net.cpp:165] Memory required for data: 9830496
I1106 20:09:58.101313 19047 layer_factory.hpp:77] Creating layer data_data_0_split
I1106 20:09:58.101336 19047 net.cpp:100] Creating Layer data_data_0_split
I1106 20:09:58.101344 19047 net.cpp:434] data_data_0_split <- data
I1106 20:09:58.101362 19047 net.cpp:408] data_data_0_split -> data_data_0_split_0
I1106 20:09:58.101374 19047 net.cpp:408] data_data_0_split -> data_data_0_split_1
I1106 20:09:58.101382 19047 net.cpp:408] data_data_0_split -> data_data_0_split_2
I1106 20:09:58.101392 19047 net.cpp:408] data_data_0_split -> data_data_0_split_3
I1106 20:09:58.101397 19047 net.cpp:408] data_data_0_split -> data_data_0_split_4
I1106 20:09:58.101555 19047 net.cpp:150] Setting up data_data_0_split
I1106 20:09:58.101569 19047 net.cpp:157] Top shape: 8 3 320 320 (2457600)
I1106 20:09:58.101574 19047 net.cpp:157] Top shape: 8 3 320 320 (2457600)
I1106 20:09:58.101583 19047 net.cpp:157] Top shape: 8 3 320 320 (2457600)
I1106 20:09:58.101586 19047 net.cpp:157] Top shape: 8 3 320 320 (2457600)
I1106 20:09:58.101591 19047 net.cpp:157] Top shape: 8 3 320 320 (2457600)
I1106 20:09:58.101594 19047 net.cpp:165] Memory required for data: 58982496
I1106 20:09:58.101598 19047 layer_factory.hpp:77] Creating layer label_data_1_split
I1106 20:09:58.101608 19047 net.cpp:100] Creating Layer label_data_1_split
I1106 20:09:58.101614 19047 net.cpp:434] label_data_1_split <- label
I1106 20:09:58.101620 19047 net.cpp:408] label_data_1_split -> label_data_1_split_0
I1106 20:09:58.101629 19047 net.cpp:408] label_data_1_split -> label_data_1_split_1
I1106 20:09:58.101722 19047 net.cpp:150] Setting up label_data_1_split
I1106 20:09:58.101735 19047 net.cpp:157] Top shape: 1 1 3 8 (24)
I1106 20:09:58.101743 19047 net.cpp:157] Top shape: 1 1 3 8 (24)
I1106 20:09:58.101752 19047 net.cpp:165] Memory required for data: 58982688
I1106 20:09:58.101758 19047 layer_factory.hpp:77] Creating layer stem1/conv
I1106 20:09:58.101794 19047 net.cpp:100] Creating Layer stem1/conv
I1106 20:09:58.101802 19047 net.cpp:434] stem1/conv <- data_data_0_split_0
I1106 20:09:58.101825 19047 net.cpp:408] stem1/conv -> stem1/conv
I1106 20:09:58.178587 19063 blocking_queue.cpp:50] Waiting for data
I1106 20:09:58.872030 19047 net.cpp:150] Setting up stem1/conv
I1106 20:09:58.872071 19047 net.cpp:157] Top shape: 8 64 160 160 (13107200)
I1106 20:09:58.872074 19047 net.cpp:165] Memory required for data: 111411488
I1106 20:09:58.872095 19047 layer_factory.hpp:77] Creating layer stem1/bn
I1106 20:09:58.872144 19047 net.cpp:100] Creating Layer stem1/bn
I1106 20:09:58.872153 19047 net.cpp:434] stem1/bn <- stem1/conv
I1106 20:09:58.872162 19047 net.cpp:395] stem1/bn -> stem1/conv (in-place)
I1106 20:09:58.873455 19047 net.cpp:150] Setting up stem1/bn
I1106 20:09:58.873468 19047 net.cpp:157] Top shape: 8 64 160 160 (13107200)
I1106 20:09:58.873472 19047 net.cpp:165] Memory required for data: 163840288
I1106 20:09:58.873484 19047 layer_factory.hpp:77] Creating layer stem1/scale
I1106 20:09:58.873502 19047 net.cpp:100] Creating Layer stem1/scale
I1106 20:09:58.873507 19047 net.cpp:434] stem1/scale <- stem1/conv
I1106 20:09:58.873512 19047 net.cpp:395] stem1/scale -> stem1/conv (in-place)
I1106 20:09:58.873580 19047 layer_factory.hpp:77] Creating layer stem1/scale
I1106 20:09:58.873724 19047 net.cpp:150] Setting up stem1/scale
I1106 20:09:58.873734 19047 net.cpp:157] Top shape: 8 64 160 160 (13107200)
I1106 20:09:58.873739 19047 net.cpp:165] Memory required for data: 216269088
I1106 20:09:58.873745 19047 layer_factory.hpp:77] Creating layer stem1/relu
I1106 20:09:58.873754 19047 net.cpp:100] Creating Layer stem1/relu
I1106 20:09:58.873757 19047 net.cpp:434] stem1/relu <- stem1/conv
I1106 20:09:58.873762 19047 net.cpp:395] stem1/relu -> stem1/conv (in-place)
I1106 20:09:58.874136 19047 net.cpp:150] Setting up stem1/relu
I1106 20:09:58.874148 19047 net.cpp:157] Top shape: 8 64 160 160 (13107200)
I1106 20:09:58.874162 19047 net.cpp:165] Memory required for data: 268697888
I1106 20:09:58.874166 19047 layer_factory.hpp:77] Creating layer stem2/conv
I1106 20:09:58.874178 19047 net.cpp:100] Creating Layer stem2/conv
I1106 20:09:58.874182 19047 net.cpp:434] stem2/conv <- stem1/conv
I1106 20:09:58.874188 19047 net.cpp:408] stem2/conv -> stem2/conv
I1106 20:09:58.876138 19047 net.cpp:150] Setting up stem2/conv
I1106 20:09:58.876163 19047 net.cpp:157] Top shape: 8 64 160 160 (13107200)
I1106 20:09:58.876168 19047 net.cpp:165] Memory required for data: 321126688
I1106 20:09:58.876173 19047 layer_factory.hpp:77] Creating layer stem2/bn
I1106 20:09:58.876183 19047 net.cpp:100] Creating Layer stem2/bn
I1106 20:09:58.876186 19047 net.cpp:434] stem2/bn <- stem2/conv
I1106 20:09:58.876220 19047 net.cpp:395] stem2/bn -> stem2/conv (in-place)
I1106 20:09:58.876421 19047 net.cpp:150] Setting up stem2/bn
I1106 20:09:58.876430 19047 net.cpp:157] Top shape: 8 64 160 160 (13107200)
I1106 20:09:58.876435 19047 net.cpp:165] Memory required for data: 373555488
I1106 20:09:58.876444 19047 layer_factory.hpp:77] Creating layer stem2/scale
I1106 20:09:58.876461 19047 net.cpp:100] Creating Layer stem2/scale
I1106 20:09:58.876464 19047 net.cpp:434] stem2/scale <- stem2/conv
I1106 20:09:58.876469 19047 net.cpp:395] stem2/scale -> stem2/conv (in-place)
I1106 20:09:58.876507 19047 layer_factory.hpp:77] Creating layer stem2/scale
I1106 20:09:58.876637 19047 net.cpp:150] Setting up stem2/scale
I1106 20:09:58.876646 19047 net.cpp:157] Top shape: 8 64 160 160 (13107200)
I1106 20:09:58.876649 19047 net.cpp:165] Memory required for data: 425984288
I1106 20:09:58.876657 19047 layer_factory.hpp:77] Creating layer stem2/relu
I1106 20:09:58.876662 19047 net.cpp:100] Creating Layer stem2/relu
I1106 20:09:58.876665 19047 net.cpp:434] stem2/relu <- stem2/conv
I1106 20:09:58.876669 19047 net.cpp:395] stem2/relu -> stem2/conv (in-place)
I1106 20:09:58.877038 19047 net.cpp:150] Setting up stem2/relu
I1106 20:09:58.877049 19047 net.cpp:157] Top shape: 8 64 160 160 (13107200)
I1106 20:09:58.877063 19047 net.cpp:165] Memory required for data: 478413088
I1106 20:09:58.877066 19047 layer_factory.hpp:77] Creating layer stem3/conv
I1106 20:09:58.877076 19047 net.cpp:100] Creating Layer stem3/conv
I1106 20:09:58.877080 19047 net.cpp:434] stem3/conv <- stem2/conv
I1106 20:09:58.877085 19047 net.cpp:408] stem3/conv -> stem3/conv
I1106 20:09:58.881482 19047 net.cpp:150] Setting up stem3/conv
I1106 20:09:58.881498 19047 net.cpp:157] Top shape: 8 128 160 160 (26214400)
I1106 20:09:58.881501 19047 net.cpp:165] Memory required for data: 583270688
I1106 20:09:58.881506 19047 layer_factory.hpp:77] Creating layer stem3/bn
I1106 20:09:58.881515 19047 net.cpp:100] Creating Layer stem3/bn
I1106 20:09:58.881517 19047 net.cpp:434] stem3/bn <- stem3/conv
I1106 20:09:58.881525 19047 net.cpp:395] stem3/bn -> stem3/conv (in-place)
I1106 20:09:58.881742 19047 net.cpp:150] Setting up stem3/bn
I1106 20:09:58.881750 19047 net.cpp:157] Top shape: 8 128 160 160 (26214400)
I1106 20:09:58.881753 19047 net.cpp:165] Memory required for data: 688128288
I1106 20:09:58.881760 19047 layer_factory.hpp:77] Creating layer stem3/scale
I1106 20:09:58.881767 19047 net.cpp:100] Creating Layer stem3/scale
I1106 20:09:58.881770 19047 net.cpp:434] stem3/scale <- stem3/conv
I1106 20:09:58.881775 19047 net.cpp:395] stem3/scale -> stem3/conv (in-place)
I1106 20:09:58.881815 19047 layer_factory.hpp:77] Creating layer stem3/scale
I1106 20:09:58.881950 19047 net.cpp:150] Setting up stem3/scale
I1106 20:09:58.881960 19047 net.cpp:157] Top shape: 8 128 160 160 (26214400)
I1106 20:09:58.881964 19047 net.cpp:165] Memory required for data: 792985888
I1106 20:09:58.881973 19047 layer_factory.hpp:77] Creating layer stem3/relu
I1106 20:09:58.881979 19047 net.cpp:100] Creating Layer stem3/relu
I1106 20:09:58.881983 19047 net.cpp:434] stem3/relu <- stem3/conv
I1106 20:09:58.881989 19047 net.cpp:395] stem3/relu -> stem3/conv (in-place)
I1106 20:09:58.882577 19047 net.cpp:150] Setting up stem3/relu
I1106 20:09:58.882602 19047 net.cpp:157] Top shape: 8 128 160 160 (26214400)
I1106 20:09:58.882606 19047 net.cpp:165] Memory required for data: 897843488
I1106 20:09:58.882609 19047 layer_factory.hpp:77] Creating layer Pooling1
I1106 20:09:58.882622 19047 net.cpp:100] Creating Layer Pooling1
I1106 20:09:58.882625 19047 net.cpp:434] Pooling1 <- stem3/conv
I1106 20:09:58.882630 19047 net.cpp:408] Pooling1 -> Pooling1
I1106 20:09:58.882705 19047 net.cpp:150] Setting up Pooling1
I1106 20:09:58.882715 19047 net.cpp:157] Top shape: 8 128 80 80 (6553600)
I1106 20:09:58.882719 19047 net.cpp:165] Memory required for data: 924057888
I1106 20:09:58.882721 19047 layer_factory.hpp:77] Creating layer Pooling1_Pooling1_0_split
I1106 20:09:58.882731 19047 net.cpp:100] Creating Layer Pooling1_Pooling1_0_split
I1106 20:09:58.882746 19047 net.cpp:434] Pooling1_Pooling1_0_split <- Pooling1
I1106 20:09:58.882751 19047 net.cpp:408] Pooling1_Pooling1_0_split -> Pooling1_Pooling1_0_split_0
I1106 20:09:58.882757 19047 net.cpp:408] Pooling1_Pooling1_0_split -> Pooling1_Pooling1_0_split_1
I1106 20:09:58.882797 19047 net.cpp:150] Setting up Pooling1_Pooling1_0_split
I1106 20:09:58.882803 19047 net.cpp:157] Top shape: 8 128 80 80 (6553600)
I1106 20:09:58.882807 19047 net.cpp:157] Top shape: 8 128 80 80 (6553600)
I1106 20:09:58.882809 19047 net.cpp:165] Memory required for data: 976486688
I1106 20:09:58.882812 19047 layer_factory.hpp:77] Creating layer DiverseBlock2a/conv
I1106 20:09:58.882822 19047 net.cpp:100] Creating Layer DiverseBlock2a/conv
I1106 20:09:58.882825 19047 net.cpp:434] DiverseBlock2a/conv <- Pooling1_Pooling1_0_split_0
I1106 20:09:58.882831 19047 net.cpp:408] DiverseBlock2a/conv -> DiverseBlock2a/conv
I1106 20:09:58.885413 19047 net.cpp:150] Setting up DiverseBlock2a/conv
I1106 20:09:58.885428 19047 net.cpp:157] Top shape: 8 128 80 80 (6553600)
I1106 20:09:58.885444 19047 net.cpp:165] Memory required for data: 1002701088
I1106 20:09:58.885460 19047 layer_factory.hpp:77] Creating layer DiverseBlock2a/bn
I1106 20:09:58.885468 19047 net.cpp:100] Creating Layer DiverseBlock2a/bn
I1106 20:09:58.885470 19047 net.cpp:434] DiverseBlock2a/bn <- DiverseBlock2a/conv
I1106 20:09:58.885475 19047 net.cpp:395] DiverseBlock2a/bn -> DiverseBlock2a/conv (in-place)
I1106 20:09:58.886660 19047 net.cpp:150] Setting up DiverseBlock2a/bn
I1106 20:09:58.886675 19047 net.cpp:157] Top shape: 8 128 80 80 (6553600)
I1106 20:09:58.886678 19047 net.cpp:165] Memory required for data: 1028915488
I1106 20:09:58.886687 19047 layer_factory.hpp:77] Creating layer DiverseBlock2a/scale
I1106 20:09:58.886694 19047 net.cpp:100] Creating Layer DiverseBlock2a/scale
I1106 20:09:58.886698 19047 net.cpp:434] DiverseBlock2a/scale <- DiverseBlock2a/conv
I1106 20:09:58.886703 19047 net.cpp:395] DiverseBlock2a/scale -> DiverseBlock2a/conv (in-place)
I1106 20:09:58.886754 19047 layer_factory.hpp:77] Creating layer DiverseBlock2a/scale
I1106 20:09:58.886868 19047 net.cpp:150] Setting up DiverseBlock2a/scale
I1106 20:09:58.886876 19047 net.cpp:157] Top shape: 8 128 80 80 (6553600)
I1106 20:09:58.886879 19047 net.cpp:165] Memory required for data: 1055129888
I1106 20:09:58.886884 19047 layer_factory.hpp:77] Creating layer DiverseBlock2a/relu
I1106 20:09:58.886890 19047 net.cpp:100] Creating Layer DiverseBlock2a/relu
I1106 20:09:58.886893 19047 net.cpp:434] DiverseBlock2a/relu <- DiverseBlock2a/conv
I1106 20:09:58.886898 19047 net.cpp:395] DiverseBlock2a/relu -> DiverseBlock2a/conv (in-place)
I1106 20:09:58.887336 19047 net.cpp:150] Setting up DiverseBlock2a/relu
I1106 20:09:58.887346 19047 net.cpp:157] Top shape: 8 128 80 80 (6553600)
I1106 20:09:58.887360 19047 net.cpp:165] Memory required for data: 1081344288
I1106 20:09:58.887363 19047 layer_factory.hpp:77] Creating layer DiverseBlock2a/conv_DiverseBlock2a/relu_0_split
I1106 20:09:58.887370 19047 net.cpp:100] Creating Layer DiverseBlock2a/conv_DiverseBlock2a/relu_0_split
I1106 20:09:58.887373 19047 net.cpp:434] DiverseBlock2a/conv_DiverseBlock2a/relu_0_split <- DiverseBlock2a/conv
I1106 20:09:58.887379 19047 net.cpp:408] DiverseBlock2a/conv_DiverseBlock2a/relu_0_split -> DiverseBlock2a/conv_DiverseBlock2a/relu_0_split_0
I1106 20:09:58.887387 19047 net.cpp:408] DiverseBlock2a/conv_DiverseBlock2a/relu_0_split -> DiverseBlock2a/conv_DiverseBlock2a/relu_0_split_1
I1106 20:09:58.887428 19047 net.cpp:150] Setting up DiverseBlock2a/conv_DiverseBlock2a/relu_0_split
I1106 20:09:58.887435 19047 net.cpp:157] Top shape: 8 128 80 80 (6553600)
I1106 20:09:58.887449 19047 net.cpp:157] Top shape: 8 128 80 80 (6553600)
I1106 20:09:58.887452 19047 net.cpp:165] Memory required for data: 1133773088
I1106 20:09:58.887455 19047 layer_factory.hpp:77] Creating layer DiverseBlock2b/conv
I1106 20:09:58.887465 19047 net.cpp:100] Creating Layer DiverseBlock2b/conv
I1106 20:09:58.887468 19047 net.cpp:434] DiverseBlock2b/conv <- DiverseBlock2a/conv_DiverseBlock2a/relu_0_split_0
I1106 20:09:58.887485 19047 net.cpp:408] DiverseBlock2b/conv -> DiverseBlock2b/conv
I1106 20:09:58.890120 19047 net.cpp:150] Setting up DiverseBlock2b/conv
I1106 20:09:58.890136 19047 net.cpp:157] Top shape: 8 128 80 80 (6553600)
I1106 20:09:58.890139 19047 net.cpp:165] Memory required for data: 1159987488
I1106 20:09:58.890144 19047 layer_factory.hpp:77] Creating layer DiverseBlock2b/bn
I1106 20:09:58.890149 19047 net.cpp:100] Creating Layer DiverseBlock2b/bn
I1106 20:09:58.890152 19047 net.cpp:434] DiverseBlock2b/bn <- DiverseBlock2b/conv
I1106 20:09:58.890158 19047 net.cpp:395] DiverseBlock2b/bn -> DiverseBlock2b/conv (in-place)
I1106 20:09:58.890363 19047 net.cpp:150] Setting up DiverseBlock2b/bn
I1106 20:09:58.890372 19047 net.cpp:157] Top shape: 8 128 80 80 (6553600)
I1106 20:09:58.890377 19047 net.cpp:165] Memory required for data: 1186201888
I1106 20:09:58.890383 19047 layer_factory.hpp:77] Creating layer DiverseBlock2b/scale
I1106 20:09:58.890389 19047 net.cpp:100] Creating Layer DiverseBlock2b/scale
I1106 20:09:58.890393 19047 net.cpp:434] DiverseBlock2b/scale <- DiverseBlock2b/conv
I1106 20:09:58.890398 19047 net.cpp:395] DiverseBlock2b/scale -> DiverseBlock2b/conv (in-place)
I1106 20:09:58.890436 19047 layer_factory.hpp:77] Creating layer DiverseBlock2b/scale
I1106 20:09:58.890542 19047 net.cpp:150] Setting up DiverseBlock2b/scale
I1106 20:09:58.890550 19047 net.cpp:157] Top shape: 8 128 80 80 (6553600)
I1106 20:09:58.890553 19047 net.cpp:165] Memory required for data: 1212416288
I1106 20:09:58.890558 19047 layer_factory.hpp:77] Creating layer DiverseBlock2b/relu
I1106 20:09:58.890564 19047 net.cpp:100] Creating Layer DiverseBlock2b/relu
I1106 20:09:58.890568 19047 net.cpp:434] DiverseBlock2b/relu <- DiverseBlock2b/conv
I1106 20:09:58.890573 19047 net.cpp:395] DiverseBlock2b/relu -> DiverseBlock2b/conv (in-place)
I1106 20:09:58.892442 19047 net.cpp:150] Setting up DiverseBlock2b/relu
I1106 20:09:58.892457 19047 net.cpp:157] Top shape: 8 128 80 80 (6553600)
I1106 20:09:58.892462 19047 net.cpp:165] Memory required for data: 1238630688
I1106 20:09:58.892464 19047 layer_factory.hpp:77] Creating layer DiverseBlock2b/conv_DiverseBlock2b/relu_0_split
I1106 20:09:58.892469 19047 net.cpp:100] Creating Layer DiverseBlock2b/conv_DiverseBlock2b/relu_0_split
I1106 20:09:58.892472 19047 net.cpp:434] DiverseBlock2b/conv_DiverseBlock2b/relu_0_split <- DiverseBlock2b/conv
I1106 20:09:58.892479 19047 net.cpp:408] DiverseBlock2b/conv_DiverseBlock2b/relu_0_split -> DiverseBlock2b/conv_DiverseBlock2b/relu_0_split_0
I1106 20:09:58.892486 19047 net.cpp:408] DiverseBlock2b/conv_DiverseBlock2b/relu_0_split -> DiverseBlock2b/conv_DiverseBlock2b/relu_0_split_1
I1106 20:09:58.892542 19047 net.cpp:150] Setting up DiverseBlock2b/conv_DiverseBlock2b/relu_0_split
I1106 20:09:58.892549 19047 net.cpp:157] Top shape: 8 128 80 80 (6553600)
I1106 20:09:58.892551 19047 net.cpp:157] Top shape: 8 128 80 80 (6553600)
I1106 20:09:58.892554 19047 net.cpp:165] Memory required for data: 1291059488
I1106 20:09:58.892568 19047 layer_factory.hpp:77] Creating layer DiverseBlock2c/conv
I1106 20:09:58.892577 19047 net.cpp:100] Creating Layer DiverseBlock2c/conv
I1106 20:09:58.892580 19047 net.cpp:434] DiverseBlock2c/conv <- DiverseBlock2b/conv_DiverseBlock2b/relu_0_split_0
I1106 20:09:58.892590 19047 net.cpp:408] DiverseBlock2c/conv -> DiverseBlock2c/conv
I1106 20:09:58.895169 19047 net.cpp:150] Setting up DiverseBlock2c/conv
I1106 20:09:58.895184 19047 net.cpp:157] Top shape: 8 128 80 80 (6553600)
I1106 20:09:58.895190 19047 net.cpp:165] Memory required for data: 1317273888
I1106 20:09:58.895195 19047 layer_factory.hpp:77] Creating layer DiverseBlock2c/bn
I1106 20:09:58.895200 19047 net.cpp:100] Creating Layer DiverseBlock2c/bn
I1106 20:09:58.895205 19047 net.cpp:434] DiverseBlock2c/bn <- DiverseBlock2c/conv
I1106 20:09:58.895208 19047 net.cpp:395] DiverseBlock2c/bn -> DiverseBlock2c/conv (in-place)
I1106 20:09:58.895419 19047 net.cpp:150] Setting up DiverseBlock2c/bn
I1106 20:09:58.895428 19047 net.cpp:157] Top shape: 8 128 80 80 (6553600)
I1106 20:09:58.895442 19047 net.cpp:165] Memory required for data: 1343488288
I1106 20:09:58.895457 19047 layer_factory.hpp:77] Creating layer DiverseBlock2c/scale
I1106 20:09:58.895464 19047 net.cpp:100] Creating Layer DiverseBlock2c/scale
I1106 20:09:58.895468 19047 net.cpp:434] DiverseBlock2c/scale <- DiverseBlock2c/conv
I1106 20:09:58.895473 19047 net.cpp:395] DiverseBlock2c/scale -> DiverseBlock2c/conv (in-place)
I1106 20:09:58.895516 19047 layer_factory.hpp:77] Creating layer DiverseBlock2c/scale
I1106 20:09:58.895620 19047 net.cpp:150] Setting up DiverseBlock2c/scale
I1106 20:09:58.895630 19047 net.cpp:157] Top shape: 8 128 80 80 (6553600)
I1106 20:09:58.895633 19047 net.cpp:165] Memory required for data: 1369702688
I1106 20:09:58.895639 19047 layer_factory.hpp:77] Creating layer DiverseBlock2c/relu
I1106 20:09:58.895644 19047 net.cpp:100] Creating Layer DiverseBlock2c/relu
I1106 20:09:58.895648 19047 net.cpp:434] DiverseBlock2c/relu <- DiverseBlock2c/conv
I1106 20:09:58.895653 19047 net.cpp:395] DiverseBlock2c/relu -> DiverseBlock2c/conv (in-place)
I1106 20:09:58.896095 19047 net.cpp:150] Setting up DiverseBlock2c/relu
I1106 20:09:58.896106 19047 net.cpp:157] Top shape: 8 128 80 80 (6553600)
I1106 20:09:58.896109 19047 net.cpp:165] Memory required for data: 1395917088
I1106 20:09:58.896136 19047 layer_factory.hpp:77] Creating layer DiverseBlock2c/conv_DiverseBlock2c/relu_0_split
I1106 20:09:58.896143 19047 net.cpp:100] Creating Layer DiverseBlock2c/conv_DiverseBlock2c/relu_0_split
I1106 20:09:58.896147 19047 net.cpp:434] DiverseBlock2c/conv_DiverseBlock2c/relu_0_split <- DiverseBlock2c/conv
I1106 20:09:58.896152 19047 net.cpp:408] DiverseBlock2c/conv_DiverseBlock2c/relu_0_split -> DiverseBlock2c/conv_DiverseBlock2c/relu_0_split_0
I1106 20:09:58.896158 19047 net.cpp:408] DiverseBlock2c/conv_DiverseBlock2c/relu_0_split -> DiverseBlock2c/conv_DiverseBlock2c/relu_0_split_1
I1106 20:09:58.896212 19047 net.cpp:150] Setting up DiverseBlock2c/conv_DiverseBlock2c/relu_0_split
I1106 20:09:58.896219 19047 net.cpp:157] Top shape: 8 128 80 80 (6553600)
I1106 20:09:58.896222 19047 net.cpp:157] Top shape: 8 128 80 80 (6553600)
I1106 20:09:58.896225 19047 net.cpp:165] Memory required for data: 1448345888
I1106 20:09:58.896229 19047 layer_factory.hpp:77] Creating layer DiverseBlock2d/conv
I1106 20:09:58.896240 19047 net.cpp:100] Creating Layer DiverseBlock2d/conv
I1106 20:09:58.896245 19047 net.cpp:434] DiverseBlock2d/conv <- DiverseBlock2c/conv_DiverseBlock2c/relu_0_split_0
I1106 20:09:58.896250 19047 net.cpp:408] DiverseBlock2d/conv -> DiverseBlock2d/conv
I1106 20:09:58.899848 19047 net.cpp:150] Setting up DiverseBlock2d/conv
I1106 20:09:58.899863 19047 net.cpp:157] Top shape: 8 128 80 80 (6553600)
I1106 20:09:58.899866 19047 net.cpp:165] Memory required for data: 1474560288
I1106 20:09:58.899873 19047 layer_factory.hpp:77] Creating layer DiverseBlock2d/bn
I1106 20:09:58.899880 19047 net.cpp:100] Creating Layer DiverseBlock2d/bn
I1106 20:09:58.899884 19047 net.cpp:434] DiverseBlock2d/bn <- DiverseBlock2d/conv
I1106 20:09:58.899888 19047 net.cpp:395] DiverseBlock2d/bn -> DiverseBlock2d/conv (in-place)
I1106 20:09:58.900100 19047 net.cpp:150] Setting up DiverseBlock2d/bn
I1106 20:09:58.900110 19047 net.cpp:157] Top shape: 8 128 80 80 (6553600)
I1106 20:09:58.900112 19047 net.cpp:165] Memory required for data: 1500774688
I1106 20:09:58.900133 19047 layer_factory.hpp:77] Creating layer DiverseBlock2d/scale
I1106 20:09:58.900152 19047 net.cpp:100] Creating Layer DiverseBlock2d/scale
I1106 20:09:58.900156 19047 net.cpp:434] DiverseBlock2d/scale <- DiverseBlock2d/conv
I1106 20:09:58.900161 19047 net.cpp:395] DiverseBlock2d/scale -> DiverseBlock2d/conv (in-place)
I1106 20:09:58.900208 19047 layer_factory.hpp:77] Creating layer DiverseBlock2d/scale
I1106 20:09:58.900318 19047 net.cpp:150] Setting up DiverseBlock2d/scale
I1106 20:09:58.900327 19047 net.cpp:157] Top shape: 8 128 80 80 (6553600)
I1106 20:09:58.900331 19047 net.cpp:165] Memory required for data: 1526989088
I1106 20:09:58.900336 19047 layer_factory.hpp:77] Creating layer DiverseBlock2d/relu
I1106 20:09:58.900355 19047 net.cpp:100] Creating Layer DiverseBlock2d/relu
I1106 20:09:58.900359 19047 net.cpp:434] DiverseBlock2d/relu <- DiverseBlock2d/conv
I1106 20:09:58.900364 19047 net.cpp:395] DiverseBlock2d/relu -> DiverseBlock2d/conv (in-place)
I1106 20:09:58.900821 19047 net.cpp:150] Setting up DiverseBlock2d/relu
I1106 20:09:58.900832 19047 net.cpp:157] Top shape: 8 128 80 80 (6553600)
I1106 20:09:58.900846 19047 net.cpp:165] Memory required for data: 1553203488
I1106 20:09:58.900849 19047 layer_factory.hpp:77] Creating layer DiverseBlock2d/conv_DiverseBlock2d/relu_0_split
I1106 20:09:58.900858 19047 net.cpp:100] Creating Layer DiverseBlock2d/conv_DiverseBlock2d/relu_0_split
I1106 20:09:58.900862 19047 net.cpp:434] DiverseBlock2d/conv_DiverseBlock2d/relu_0_split <- DiverseBlock2d/conv
I1106 20:09:58.900867 19047 net.cpp:408] DiverseBlock2d/conv_DiverseBlock2d/relu_0_split -> DiverseBlock2d/conv_DiverseBlock2d/relu_0_split_0
I1106 20:09:58.900873 19047 net.cpp:408] DiverseBlock2d/conv_DiverseBlock2d/relu_0_split -> DiverseBlock2d/conv_DiverseBlock2d/relu_0_split_1
I1106 20:09:58.900918 19047 net.cpp:150] Setting up DiverseBlock2d/conv_DiverseBlock2d/relu_0_split
I1106 20:09:58.900933 19047 net.cpp:157] Top shape: 8 128 80 80 (6553600)
I1106 20:09:58.900935 19047 net.cpp:157] Top shape: 8 128 80 80 (6553600)
I1106 20:09:58.900938 19047 net.cpp:165] Memory required for data: 1605632288
I1106 20:09:58.900941 19047 layer_factory.hpp:77] Creating layer DiverseBlock2e/conv
I1106 20:09:58.900950 19047 net.cpp:100] Creating Layer DiverseBlock2e/conv
I1106 20:09:58.900954 19047 net.cpp:434] DiverseBlock2e/conv <- DiverseBlock2d/conv_DiverseBlock2d/relu_0_split_0
I1106 20:09:58.900960 19047 net.cpp:408] DiverseBlock2e/conv -> DiverseBlock2e/conv
I1106 20:09:58.904814 19047 net.cpp:150] Setting up DiverseBlock2e/conv
I1106 20:09:58.904830 19047 net.cpp:157] Top shape: 8 128 80 80 (6553600)
I1106 20:09:58.904835 19047 net.cpp:165] Memory required for data: 1631846688
I1106 20:09:58.904840 19047 layer_factory.hpp:77] Creating layer DiverseBlock2e/bn
I1106 20:09:58.904846 19047 net.cpp:100] Creating Layer DiverseBlock2e/bn
I1106 20:09:58.904850 19047 net.cpp:434] DiverseBlock2e/bn <- DiverseBlock2e/conv
I1106 20:09:58.904855 19047 net.cpp:395] DiverseBlock2e/bn -> DiverseBlock2e/conv (in-place)
I1106 20:09:58.905072 19047 net.cpp:150] Setting up DiverseBlock2e/bn
I1106 20:09:58.905081 19047 net.cpp:157] Top shape: 8 128 80 80 (6553600)
I1106 20:09:58.905084 19047 net.cpp:165] Memory required for data: 1658061088
I1106 20:09:58.905092 19047 layer_factory.hpp:77] Creating layer DiverseBlock2e/scale
I1106 20:09:58.905097 19047 net.cpp:100] Creating Layer DiverseBlock2e/scale
I1106 20:09:58.905102 19047 net.cpp:434] DiverseBlock2e/scale <- DiverseBlock2e/conv
I1106 20:09:58.905105 19047 net.cpp:395] DiverseBlock2e/scale -> DiverseBlock2e/conv (in-place)
I1106 20:09:58.905148 19047 layer_factory.hpp:77] Creating layer DiverseBlock2e/scale
I1106 20:09:58.905267 19047 net.cpp:150] Setting up DiverseBlock2e/scale
I1106 20:09:58.905275 19047 net.cpp:157] Top shape: 8 128 80 80 (6553600)
I1106 20:09:58.905278 19047 net.cpp:165] Memory required for data: 1684275488
I1106 20:09:58.905284 19047 layer_factory.hpp:77] Creating layer DiverseBlock2e/relu
I1106 20:09:58.905290 19047 net.cpp:100] Creating Layer DiverseBlock2e/relu
I1106 20:09:58.905294 19047 net.cpp:434] DiverseBlock2e/relu <- DiverseBlock2e/conv
I1106 20:09:58.905298 19047 net.cpp:395] DiverseBlock2e/relu -> DiverseBlock2e/conv (in-place)
I1106 20:09:58.905900 19047 net.cpp:150] Setting up DiverseBlock2e/relu
I1106 20:09:58.905913 19047 net.cpp:157] Top shape: 8 128 80 80 (6553600)
I1106 20:09:58.905927 19047 net.cpp:165] Memory required for data: 1710489888
I1106 20:09:58.905931 19047 layer_factory.hpp:77] Creating layer Transition2/concat
I1106 20:09:58.905942 19047 net.cpp:100] Creating Layer Transition2/concat
I1106 20:09:58.905946 19047 net.cpp:434] Transition2/concat <- Pooling1_Pooling1_0_split_1
I1106 20:09:58.905951 19047 net.cpp:434] Transition2/concat <- DiverseBlock2a/conv_DiverseBlock2a/relu_0_split_1
I1106 20:09:58.905966 19047 net.cpp:434] Transition2/concat <- DiverseBlock2b/conv_DiverseBlock2b/relu_0_split_1
I1106 20:09:58.905969 19047 net.cpp:434] Transition2/concat <- DiverseBlock2c/conv_DiverseBlock2c/relu_0_split_1
I1106 20:09:58.905972 19047 net.cpp:434] Transition2/concat <- DiverseBlock2d/conv_DiverseBlock2d/relu_0_split_1
I1106 20:09:58.905975 19047 net.cpp:434] Transition2/concat <- DiverseBlock2e/conv
I1106 20:09:58.905980 19047 net.cpp:408] Transition2/concat -> Transition2/concat
I1106 20:09:58.906028 19047 net.cpp:150] Setting up Transition2/concat
I1106 20:09:58.906035 19047 net.cpp:157] Top shape: 8 768 80 80 (39321600)
I1106 20:09:58.906038 19047 net.cpp:165] Memory required for data: 1867776288
I1106 20:09:58.906040 19047 layer_factory.hpp:77] Creating layer Transition2/conv
I1106 20:09:58.906050 19047 net.cpp:100] Creating Layer Transition2/conv
I1106 20:09:58.906054 19047 net.cpp:434] Transition2/conv <- Transition2/concat
I1106 20:09:58.906059 19047 net.cpp:408] Transition2/conv -> Transition2/conv
I1106 20:09:58.908905 19047 net.cpp:150] Setting up Transition2/conv
I1106 20:09:58.908919 19047 net.cpp:157] Top shape: 8 256 80 80 (13107200)
I1106 20:09:58.908923 19047 net.cpp:165] Memory required for data: 1920205088
I1106 20:09:58.908928 19047 layer_factory.hpp:77] Creating layer Transition2/bn
I1106 20:09:58.908936 19047 net.cpp:100] Creating Layer Transition2/bn
I1106 20:09:58.908939 19047 net.cpp:434] Transition2/bn <- Transition2/conv
I1106 20:09:58.908944 19047 net.cpp:395] Transition2/bn -> Transition2/conv (in-place)
I1106 20:09:58.909153 19047 net.cpp:150] Setting up Transition2/bn
I1106 20:09:58.909162 19047 net.cpp:157] Top shape: 8 256 80 80 (13107200)
I1106 20:09:58.909165 19047 net.cpp:165] Memory required for data: 1972633888
I1106 20:09:58.909173 19047 layer_factory.hpp:77] Creating layer Transition2/scale
I1106 20:09:58.909181 19047 net.cpp:100] Creating Layer Transition2/scale
I1106 20:09:58.909185 19047 net.cpp:434] Transition2/scale <- Transition2/conv
I1106 20:09:58.909190 19047 net.cpp:395] Transition2/scale -> Transition2/conv (in-place)
I1106 20:09:58.909231 19047 layer_factory.hpp:77] Creating layer Transition2/scale
I1106 20:09:58.909346 19047 net.cpp:150] Setting up Transition2/scale
I1106 20:09:58.909354 19047 net.cpp:157] Top shape: 8 256 80 80 (13107200)
I1106 20:09:58.909358 19047 net.cpp:165] Memory required for data: 2025062688
I1106 20:09:58.909363 19047 layer_factory.hpp:77] Creating layer Transition2/relu
I1106 20:09:58.909368 19047 net.cpp:100] Creating Layer Transition2/relu
I1106 20:09:58.909371 19047 net.cpp:434] Transition2/relu <- Transition2/conv
I1106 20:09:58.909374 19047 net.cpp:395] Transition2/relu -> Transition2/conv (in-place)
I1106 20:09:58.909826 19047 net.cpp:150] Setting up Transition2/relu
I1106 20:09:58.909837 19047 net.cpp:157] Top shape: 8 256 80 80 (13107200)
I1106 20:09:58.909850 19047 net.cpp:165] Memory required for data: 2077491488
I1106 20:09:58.909853 19047 layer_factory.hpp:77] Creating layer Transition2/pooling
I1106 20:09:58.909862 19047 net.cpp:100] Creating Layer Transition2/pooling
I1106 20:09:58.909864 19047 net.cpp:434] Transition2/pooling <- Transition2/conv
I1106 20:09:58.909871 19047 net.cpp:408] Transition2/pooling -> Transition2/pooling
I1106 20:09:58.909919 19047 net.cpp:150] Setting up Transition2/pooling
I1106 20:09:58.909924 19047 net.cpp:157] Top shape: 8 256 40 40 (3276800)
I1106 20:09:58.909926 19047 net.cpp:165] Memory required for data: 2090598688
I1106 20:09:58.909940 19047 layer_factory.hpp:77] Creating layer Transition2/pooling_Transition2/pooling_0_split
I1106 20:09:58.909946 19047 net.cpp:100] Creating Layer Transition2/pooling_Transition2/pooling_0_split
I1106 20:09:58.909950 19047 net.cpp:434] Transition2/pooling_Transition2/pooling_0_split <- Transition2/pooling
I1106 20:09:58.909953 19047 net.cpp:408] Transition2/pooling_Transition2/pooling_0_split -> Transition2/pooling_Transition2/pooling_0_split_0
I1106 20:09:58.909958 19047 net.cpp:408] Transition2/pooling_Transition2/pooling_0_split -> Transition2/pooling_Transition2/pooling_0_split_1
I1106 20:09:58.910012 19047 net.cpp:150] Setting up Transition2/pooling_Transition2/pooling_0_split
I1106 20:09:58.910019 19047 net.cpp:157] Top shape: 8 256 40 40 (3276800)
I1106 20:09:58.910023 19047 net.cpp:157] Top shape: 8 256 40 40 (3276800)
I1106 20:09:58.910025 19047 net.cpp:165] Memory required for data: 2116813088
I1106 20:09:58.910029 19047 layer_factory.hpp:77] Creating layer DiverseBlock3a/conv
I1106 20:09:58.910042 19047 net.cpp:100] Creating Layer DiverseBlock3a/conv
I1106 20:09:58.910044 19047 net.cpp:434] DiverseBlock3a/conv <- Transition2/pooling_Transition2/pooling_0_split_0
I1106 20:09:58.910049 19047 net.cpp:408] DiverseBlock3a/conv -> DiverseBlock3a/conv
I1106 20:09:58.914765 19047 net.cpp:150] Setting up DiverseBlock3a/conv
I1106 20:09:58.914780 19047 net.cpp:157] Top shape: 8 160 40 40 (2048000)
I1106 20:09:58.914783 19047 net.cpp:165] Memory required for data: 2125005088
I1106 20:09:58.914789 19047 layer_factory.hpp:77] Creating layer DiverseBlock3a/bn
I1106 20:09:58.914796 19047 net.cpp:100] Creating Layer DiverseBlock3a/bn
I1106 20:09:58.914799 19047 net.cpp:434] DiverseBlock3a/bn <- DiverseBlock3a/conv
I1106 20:09:58.914804 19047 net.cpp:395] DiverseBlock3a/bn -> DiverseBlock3a/conv (in-place)
I1106 20:09:58.915035 19047 net.cpp:150] Setting up DiverseBlock3a/bn
I1106 20:09:58.915045 19047 net.cpp:157] Top shape: 8 160 40 40 (2048000)
I1106 20:09:58.915047 19047 net.cpp:165] Memory required for data: 2133197088
I1106 20:09:58.915055 19047 layer_factory.hpp:77] Creating layer DiverseBlock3a/scale
I1106 20:09:58.915060 19047 net.cpp:100] Creating Layer DiverseBlock3a/scale
I1106 20:09:58.915063 19047 net.cpp:434] DiverseBlock3a/scale <- DiverseBlock3a/conv
I1106 20:09:58.915069 19047 net.cpp:395] DiverseBlock3a/scale -> DiverseBlock3a/conv (in-place)
I1106 20:09:58.915110 19047 layer_factory.hpp:77] Creating layer DiverseBlock3a/scale
I1106 20:09:58.915241 19047 net.cpp:150] Setting up DiverseBlock3a/scale
I1106 20:09:58.915249 19047 net.cpp:157] Top shape: 8 160 40 40 (2048000)
I1106 20:09:58.915252 19047 net.cpp:165] Memory required for data: 2141389088
I1106 20:09:58.915257 19047 layer_factory.hpp:77] Creating layer DiverseBlock3a/relu
I1106 20:09:58.915266 19047 net.cpp:100] Creating Layer DiverseBlock3a/relu
I1106 20:09:58.915269 19047 net.cpp:434] DiverseBlock3a/relu <- DiverseBlock3a/conv
I1106 20:09:58.915272 19047 net.cpp:395] DiverseBlock3a/relu -> DiverseBlock3a/conv (in-place)
I1106 20:09:58.917181 19047 net.cpp:150] Setting up DiverseBlock3a/relu
I1106 20:09:58.917196 19047 net.cpp:157] Top shape: 8 160 40 40 (2048000)
I1106 20:09:58.917199 19047 net.cpp:165] Memory required for data: 2149581088
I1106 20:09:58.917203 19047 layer_factory.hpp:77] Creating layer DiverseBlock3a/conv_DiverseBlock3a/relu_0_split
I1106 20:09:58.917209 19047 net.cpp:100] Creating Layer DiverseBlock3a/conv_DiverseBlock3a/relu_0_split
I1106 20:09:58.917212 19047 net.cpp:434] DiverseBlock3a/conv_DiverseBlock3a/relu_0_split <- DiverseBlock3a/conv
I1106 20:09:58.917219 19047 net.cpp:408] DiverseBlock3a/conv_DiverseBlock3a/relu_0_split -> DiverseBlock3a/conv_DiverseBlock3a/relu_0_split_0
I1106 20:09:58.917225 19047 net.cpp:408] DiverseBlock3a/conv_DiverseBlock3a/relu_0_split -> DiverseBlock3a/conv_DiverseBlock3a/relu_0_split_1
I1106 20:09:58.917282 19047 net.cpp:150] Setting up DiverseBlock3a/conv_DiverseBlock3a/relu_0_split
I1106 20:09:58.917289 19047 net.cpp:157] Top shape: 8 160 40 40 (2048000)
I1106 20:09:58.917292 19047 net.cpp:157] Top shape: 8 160 40 40 (2048000)
I1106 20:09:58.917305 19047 net.cpp:165] Memory required for data: 2165965088
I1106 20:09:58.917309 19047 layer_factory.hpp:77] Creating layer DiverseBlock3b/conv
I1106 20:09:58.917317 19047 net.cpp:100] Creating Layer DiverseBlock3b/conv
I1106 20:09:58.917321 19047 net.cpp:434] DiverseBlock3b/conv <- DiverseBlock3a/conv_DiverseBlock3a/relu_0_split_0
I1106 20:09:58.917328 19047 net.cpp:408] DiverseBlock3b/conv -> DiverseBlock3b/conv
I1106 20:09:58.921314 19047 net.cpp:150] Setting up DiverseBlock3b/conv
I1106 20:09:58.921329 19047 net.cpp:157] Top shape: 8 160 40 40 (2048000)
I1106 20:09:58.921334 19047 net.cpp:165] Memory required for data: 2174157088
I1106 20:09:58.921339 19047 layer_factory.hpp:77] Creating layer DiverseBlock3b/bn
I1106 20:09:58.921345 19047 net.cpp:100] Creating Layer DiverseBlock3b/bn
I1106 20:09:58.921350 19047 net.cpp:434] DiverseBlock3b/bn <- DiverseBlock3b/conv
I1106 20:09:58.921353 19047 net.cpp:395] DiverseBlock3b/bn -> DiverseBlock3b/conv (in-place)
I1106 20:09:58.921586 19047 net.cpp:150] Setting up DiverseBlock3b/bn
I1106 20:09:58.921595 19047 net.cpp:157] Top shape: 8 160 40 40 (2048000)
I1106 20:09:58.921598 19047 net.cpp:165] Memory required for data: 2182349088
I1106 20:09:58.921605 19047 layer_factory.hpp:77] Creating layer DiverseBlock3b/scale
I1106 20:09:58.921613 19047 net.cpp:100] Creating Layer DiverseBlock3b/scale
I1106 20:09:58.921617 19047 net.cpp:434] DiverseBlock3b/scale <- DiverseBlock3b/conv
I1106 20:09:58.921622 19047 net.cpp:395] DiverseBlock3b/scale -> DiverseBlock3b/conv (in-place)
I1106 20:09:58.921665 19047 layer_factory.hpp:77] Creating layer DiverseBlock3b/scale
I1106 20:09:58.921799 19047 net.cpp:150] Setting up DiverseBlock3b/scale
I1106 20:09:58.921808 19047 net.cpp:157] Top shape: 8 160 40 40 (2048000)
I1106 20:09:58.921811 19047 net.cpp:165] Memory required for data: 2190541088
I1106 20:09:58.921828 19047 layer_factory.hpp:77] Creating layer DiverseBlock3b/relu
I1106 20:09:58.921834 19047 net.cpp:100] Creating Layer DiverseBlock3b/relu
I1106 20:09:58.921838 19047 net.cpp:434] DiverseBlock3b/relu <- DiverseBlock3b/conv
I1106 20:09:58.921842 19047 net.cpp:395] DiverseBlock3b/relu -> DiverseBlock3b/conv (in-place)
I1106 20:09:58.922288 19047 net.cpp:150] Setting up DiverseBlock3b/relu
I1106 20:09:58.922302 19047 net.cpp:157] Top shape: 8 160 40 40 (2048000)
I1106 20:09:58.922315 19047 net.cpp:165] Memory required for data: 2198733088
I1106 20:09:58.922318 19047 layer_factory.hpp:77] Creating layer DiverseBlock3b/conv_DiverseBlock3b/relu_0_split
I1106 20:09:58.922323 19047 net.cpp:100] Creating Layer DiverseBlock3b/conv_DiverseBlock3b/relu_0_split
I1106 20:09:58.922336 19047 net.cpp:434] DiverseBlock3b/conv_DiverseBlock3b/relu_0_split <- DiverseBlock3b/conv
I1106 20:09:58.922341 19047 net.cpp:408] DiverseBlock3b/conv_DiverseBlock3b/relu_0_split -> DiverseBlock3b/conv_DiverseBlock3b/relu_0_split_0
I1106 20:09:58.922348 19047 net.cpp:408] DiverseBlock3b/conv_DiverseBlock3b/relu_0_split -> DiverseBlock3b/conv_DiverseBlock3b/relu_0_split_1
I1106 20:09:58.922416 19047 net.cpp:150] Setting up DiverseBlock3b/conv_DiverseBlock3b/relu_0_split
I1106 20:09:58.922423 19047 net.cpp:157] Top shape: 8 160 40 40 (2048000)
I1106 20:09:58.922426 19047 net.cpp:157] Top shape: 8 160 40 40 (2048000)
I1106 20:09:58.922430 19047 net.cpp:165] Memory required for data: 2215117088
I1106 20:09:58.922432 19047 layer_factory.hpp:77] Creating layer DiverseBlock3c/conv
I1106 20:09:58.922442 19047 net.cpp:100] Creating Layer DiverseBlock3c/conv
I1106 20:09:58.922446 19047 net.cpp:434] DiverseBlock3c/conv <- DiverseBlock3b/conv_DiverseBlock3b/relu_0_split_0
I1106 20:09:58.922451 19047 net.cpp:408] DiverseBlock3c/conv -> DiverseBlock3c/conv
I1106 20:09:58.925644 19047 net.cpp:150] Setting up DiverseBlock3c/conv
I1106 20:09:58.925660 19047 net.cpp:157] Top shape: 8 160 40 40 (2048000)
I1106 20:09:58.925663 19047 net.cpp:165] Memory required for data: 2223309088
I1106 20:09:58.925669 19047 layer_factory.hpp:77] Creating layer DiverseBlock3c/bn
I1106 20:09:58.925678 19047 net.cpp:100] Creating Layer DiverseBlock3c/bn
I1106 20:09:58.925680 19047 net.cpp:434] DiverseBlock3c/bn <- DiverseBlock3c/conv
I1106 20:09:58.925685 19047 net.cpp:395] DiverseBlock3c/bn -> DiverseBlock3c/conv (in-place)
I1106 20:09:58.925920 19047 net.cpp:150] Setting up DiverseBlock3c/bn
I1106 20:09:58.925928 19047 net.cpp:157] Top shape: 8 160 40 40 (2048000)
I1106 20:09:58.925932 19047 net.cpp:165] Memory required for data: 2231501088
I1106 20:09:58.925938 19047 layer_factory.hpp:77] Creating layer DiverseBlock3c/scale
I1106 20:09:58.925956 19047 net.cpp:100] Creating Layer DiverseBlock3c/scale
I1106 20:09:58.925959 19047 net.cpp:434] DiverseBlock3c/scale <- DiverseBlock3c/conv
I1106 20:09:58.925966 19047 net.cpp:395] DiverseBlock3c/scale -> DiverseBlock3c/conv (in-place)
I1106 20:09:58.926012 19047 layer_factory.hpp:77] Creating layer DiverseBlock3c/scale
I1106 20:09:58.926142 19047 net.cpp:150] Setting up DiverseBlock3c/scale
I1106 20:09:58.926151 19047 net.cpp:157] Top shape: 8 160 40 40 (2048000)
I1106 20:09:58.926154 19047 net.cpp:165] Memory required for data: 2239693088
I1106 20:09:58.926160 19047 layer_factory.hpp:77] Creating layer DiverseBlock3c/relu
I1106 20:09:58.926165 19047 net.cpp:100] Creating Layer DiverseBlock3c/relu
I1106 20:09:58.926168 19047 net.cpp:434] DiverseBlock3c/relu <- DiverseBlock3c/conv
I1106 20:09:58.926174 19047 net.cpp:395] DiverseBlock3c/relu -> DiverseBlock3c/conv (in-place)
I1106 20:09:58.926630 19047 net.cpp:150] Setting up DiverseBlock3c/relu
I1106 20:09:58.926641 19047 net.cpp:157] Top shape: 8 160 40 40 (2048000)
I1106 20:09:58.926656 19047 net.cpp:165] Memory required for data: 2247885088
I1106 20:09:58.926658 19047 layer_factory.hpp:77] Creating layer DiverseBlock3c/conv_DiverseBlock3c/relu_0_split
I1106 20:09:58.926663 19047 net.cpp:100] Creating Layer DiverseBlock3c/conv_DiverseBlock3c/relu_0_split
I1106 20:09:58.926668 19047 net.cpp:434] DiverseBlock3c/conv_DiverseBlock3c/relu_0_split <- DiverseBlock3c/conv
I1106 20:09:58.926673 19047 net.cpp:408] DiverseBlock3c/conv_DiverseBlock3c/relu_0_split -> DiverseBlock3c/conv_DiverseBlock3c/relu_0_split_0
I1106 20:09:58.926681 19047 net.cpp:408] DiverseBlock3c/conv_DiverseBlock3c/relu_0_split -> DiverseBlock3c/conv_DiverseBlock3c/relu_0_split_1
I1106 20:09:58.926728 19047 net.cpp:150] Setting up DiverseBlock3c/conv_DiverseBlock3c/relu_0_split
I1106 20:09:58.926743 19047 net.cpp:157] Top shape: 8 160 40 40 (2048000)
I1106 20:09:58.926748 19047 net.cpp:157] Top shape: 8 160 40 40 (2048000)
I1106 20:09:58.926749 19047 net.cpp:165] Memory required for data: 2264269088
I1106 20:09:58.926753 19047 layer_factory.hpp:77] Creating layer DiverseBlock3d/conv
I1106 20:09:58.926762 19047 net.cpp:100] Creating Layer DiverseBlock3d/conv
I1106 20:09:58.926766 19047 net.cpp:434] DiverseBlock3d/conv <- DiverseBlock3c/conv_DiverseBlock3c/relu_0_split_0
I1106 20:09:58.926774 19047 net.cpp:408] DiverseBlock3d/conv -> DiverseBlock3d/conv
I1106 20:09:58.932024 19047 net.cpp:150] Setting up DiverseBlock3d/conv
I1106 20:09:58.932040 19047 net.cpp:157] Top shape: 8 160 40 40 (2048000)
I1106 20:09:58.932044 19047 net.cpp:165] Memory required for data: 2272461088
I1106 20:09:58.932049 19047 layer_factory.hpp:77] Creating layer DiverseBlock3d/bn
I1106 20:09:58.932065 19047 net.cpp:100] Creating Layer DiverseBlock3d/bn
I1106 20:09:58.932070 19047 net.cpp:434] DiverseBlock3d/bn <- DiverseBlock3d/conv
I1106 20:09:58.932075 19047 net.cpp:395] DiverseBlock3d/bn -> DiverseBlock3d/conv (in-place)
I1106 20:09:58.932339 19047 net.cpp:150] Setting up DiverseBlock3d/bn
I1106 20:09:58.932350 19047 net.cpp:157] Top shape: 8 160 40 40 (2048000)
I1106 20:09:58.932353 19047 net.cpp:165] Memory required for data: 2280653088
I1106 20:09:58.932361 19047 layer_factory.hpp:77] Creating layer DiverseBlock3d/scale
I1106 20:09:58.932368 19047 net.cpp:100] Creating Layer DiverseBlock3d/scale
I1106 20:09:58.932371 19047 net.cpp:434] DiverseBlock3d/scale <- DiverseBlock3d/conv
I1106 20:09:58.932375 19047 net.cpp:395] DiverseBlock3d/scale -> DiverseBlock3d/conv (in-place)
I1106 20:09:58.932422 19047 layer_factory.hpp:77] Creating layer DiverseBlock3d/scale
I1106 20:09:58.932564 19047 net.cpp:150] Setting up DiverseBlock3d/scale
I1106 20:09:58.932574 19047 net.cpp:157] Top shape: 8 160 40 40 (2048000)
I1106 20:09:58.932576 19047 net.cpp:165] Memory required for data: 2288845088
I1106 20:09:58.932581 19047 layer_factory.hpp:77] Creating layer DiverseBlock3d/relu
I1106 20:09:58.932588 19047 net.cpp:100] Creating Layer DiverseBlock3d/relu
I1106 20:09:58.932591 19047 net.cpp:434] DiverseBlock3d/relu <- DiverseBlock3d/conv
I1106 20:09:58.932608 19047 net.cpp:395] DiverseBlock3d/relu -> DiverseBlock3d/conv (in-place)
I1106 20:09:58.933238 19047 net.cpp:150] Setting up DiverseBlock3d/relu
I1106 20:09:58.933262 19047 net.cpp:157] Top shape: 8 160 40 40 (2048000)
I1106 20:09:58.933266 19047 net.cpp:165] Memory required for data: 2297037088
I1106 20:09:58.933271 19047 layer_factory.hpp:77] Creating layer DiverseBlock3d/conv_DiverseBlock3d/relu_0_split
I1106 20:09:58.933279 19047 net.cpp:100] Creating Layer DiverseBlock3d/conv_DiverseBlock3d/relu_0_split
I1106 20:09:58.933282 19047 net.cpp:434] DiverseBlock3d/conv_DiverseBlock3d/relu_0_split <- DiverseBlock3d/conv
I1106 20:09:58.933286 19047 net.cpp:408] DiverseBlock3d/conv_DiverseBlock3d/relu_0_split -> DiverseBlock3d/conv_DiverseBlock3d/relu_0_split_0
I1106 20:09:58.933295 19047 net.cpp:408] DiverseBlock3d/conv_DiverseBlock3d/relu_0_split -> DiverseBlock3d/conv_DiverseBlock3d/relu_0_split_1
I1106 20:09:58.933352 19047 net.cpp:150] Setting up DiverseBlock3d/conv_DiverseBlock3d/relu_0_split
I1106 20:09:58.933359 19047 net.cpp:157] Top shape: 8 160 40 40 (2048000)
I1106 20:09:58.933362 19047 net.cpp:157] Top shape: 8 160 40 40 (2048000)
I1106 20:09:58.933365 19047 net.cpp:165] Memory required for data: 2313421088
I1106 20:09:58.933368 19047 layer_factory.hpp:77] Creating layer DiverseBlock3e/conv
I1106 20:09:58.933377 19047 net.cpp:100] Creating Layer DiverseBlock3e/conv
I1106 20:09:58.933382 19047 net.cpp:434] DiverseBlock3e/conv <- DiverseBlock3d/conv_DiverseBlock3d/relu_0_split_0
I1106 20:09:58.933388 19047 net.cpp:408] DiverseBlock3e/conv -> DiverseBlock3e/conv
I1106 20:09:58.936435 19047 net.cpp:150] Setting up DiverseBlock3e/conv
I1106 20:09:58.936450 19047 net.cpp:157] Top shape: 8 160 40 40 (2048000)
I1106 20:09:58.936455 19047 net.cpp:165] Memory required for data: 2321613088
I1106 20:09:58.936460 19047 layer_factory.hpp:77] Creating layer DiverseBlock3e/bn
I1106 20:09:58.936467 19047 net.cpp:100] Creating Layer DiverseBlock3e/bn
I1106 20:09:58.936471 19047 net.cpp:434] DiverseBlock3e/bn <- DiverseBlock3e/conv
I1106 20:09:58.936475 19047 net.cpp:395] DiverseBlock3e/bn -> DiverseBlock3e/conv (in-place)
I1106 20:09:58.936714 19047 net.cpp:150] Setting up DiverseBlock3e/bn
I1106 20:09:58.936723 19047 net.cpp:157] Top shape: 8 160 40 40 (2048000)
I1106 20:09:58.936727 19047 net.cpp:165] Memory required for data: 2329805088
I1106 20:09:58.936733 19047 layer_factory.hpp:77] Creating layer DiverseBlock3e/scale
I1106 20:09:58.936739 19047 net.cpp:100] Creating Layer DiverseBlock3e/scale
I1106 20:09:58.936743 19047 net.cpp:434] DiverseBlock3e/scale <- DiverseBlock3e/conv
I1106 20:09:58.936748 19047 net.cpp:395] DiverseBlock3e/scale -> DiverseBlock3e/conv (in-place)
I1106 20:09:58.936792 19047 layer_factory.hpp:77] Creating layer DiverseBlock3e/scale
I1106 20:09:58.936926 19047 net.cpp:150] Setting up DiverseBlock3e/scale
I1106 20:09:58.936935 19047 net.cpp:157] Top shape: 8 160 40 40 (2048000)
I1106 20:09:58.936939 19047 net.cpp:165] Memory required for data: 2337997088
I1106 20:09:58.936944 19047 layer_factory.hpp:77] Creating layer DiverseBlock3e/relu
I1106 20:09:58.936949 19047 net.cpp:100] Creating Layer DiverseBlock3e/relu
I1106 20:09:58.936952 19047 net.cpp:434] DiverseBlock3e/relu <- DiverseBlock3e/conv
I1106 20:09:58.936959 19047 net.cpp:395] DiverseBlock3e/relu -> DiverseBlock3e/conv (in-place)
I1106 20:09:58.937417 19047 net.cpp:150] Setting up DiverseBlock3e/relu
I1106 20:09:58.937427 19047 net.cpp:157] Top shape: 8 160 40 40 (2048000)
I1106 20:09:58.937441 19047 net.cpp:165] Memory required for data: 2346189088
I1106 20:09:58.937444 19047 layer_factory.hpp:77] Creating layer Transition3/concat
I1106 20:09:58.937451 19047 net.cpp:100] Creating Layer Transition3/concat
I1106 20:09:58.937458 19047 net.cpp:434] Transition3/concat <- Transition2/pooling_Transition2/pooling_0_split_1
I1106 20:09:58.937463 19047 net.cpp:434] Transition3/concat <- DiverseBlock3a/conv_DiverseBlock3a/relu_0_split_1
I1106 20:09:58.937466 19047 net.cpp:434] Transition3/concat <- DiverseBlock3b/conv_DiverseBlock3b/relu_0_split_1
I1106 20:09:58.937480 19047 net.cpp:434] Transition3/concat <- DiverseBlock3c/conv_DiverseBlock3c/relu_0_split_1
I1106 20:09:58.937484 19047 net.cpp:434] Transition3/concat <- DiverseBlock3d/conv_DiverseBlock3d/relu_0_split_1
I1106 20:09:58.937487 19047 net.cpp:434] Transition3/concat <- DiverseBlock3e/conv
I1106 20:09:58.937492 19047 net.cpp:408] Transition3/concat -> Transition3/concat
I1106 20:09:58.937537 19047 net.cpp:150] Setting up Transition3/concat
I1106 20:09:58.937543 19047 net.cpp:157] Top shape: 8 1056 40 40 (13516800)
I1106 20:09:58.937546 19047 net.cpp:165] Memory required for data: 2400256288
I1106 20:09:58.937549 19047 layer_factory.hpp:77] Creating layer Transition3/conv
I1106 20:09:58.937561 19047 net.cpp:100] Creating Layer Transition3/conv
I1106 20:09:58.937563 19047 net.cpp:434] Transition3/conv <- Transition3/concat
I1106 20:09:58.937568 19047 net.cpp:408] Transition3/conv -> Transition3/conv
I1106 20:09:58.943099 19047 net.cpp:150] Setting up Transition3/conv
I1106 20:09:58.943114 19047 net.cpp:157] Top shape: 8 512 40 40 (6553600)
I1106 20:09:58.943116 19047 net.cpp:165] Memory required for data: 2426470688
I1106 20:09:58.943121 19047 layer_factory.hpp:77] Creating layer Transition3/bn
I1106 20:09:58.943130 19047 net.cpp:100] Creating Layer Transition3/bn
I1106 20:09:58.943133 19047 net.cpp:434] Transition3/bn <- Transition3/conv
I1106 20:09:58.943140 19047 net.cpp:395] Transition3/bn -> Transition3/conv (in-place)
I1106 20:09:58.944341 19047 net.cpp:150] Setting up Transition3/bn
I1106 20:09:58.944365 19047 net.cpp:157] Top shape: 8 512 40 40 (6553600)
I1106 20:09:58.944370 19047 net.cpp:165] Memory required for data: 2452685088
I1106 20:09:58.944377 19047 layer_factory.hpp:77] Creating layer Transition3/scale
I1106 20:09:58.944384 19047 net.cpp:100] Creating Layer Transition3/scale
I1106 20:09:58.944387 19047 net.cpp:434] Transition3/scale <- Transition3/conv
I1106 20:09:58.944393 19047 net.cpp:395] Transition3/scale -> Transition3/conv (in-place)
I1106 20:09:58.944447 19047 layer_factory.hpp:77] Creating layer Transition3/scale
I1106 20:09:58.944595 19047 net.cpp:150] Setting up Transition3/scale
I1106 20:09:58.944604 19047 net.cpp:157] Top shape: 8 512 40 40 (6553600)
I1106 20:09:58.944607 19047 net.cpp:165] Memory required for data: 2478899488
I1106 20:09:58.944613 19047 layer_factory.hpp:77] Creating layer Transition3/relu
I1106 20:09:58.944618 19047 net.cpp:100] Creating Layer Transition3/relu
I1106 20:09:58.944622 19047 net.cpp:434] Transition3/relu <- Transition3/conv
I1106 20:09:58.944625 19047 net.cpp:395] Transition3/relu -> Transition3/conv (in-place)
I1106 20:09:58.946683 19047 net.cpp:150] Setting up Transition3/relu
I1106 20:09:58.946698 19047 net.cpp:157] Top shape: 8 512 40 40 (6553600)
I1106 20:09:58.946702 19047 net.cpp:165] Memory required for data: 2505113888
I1106 20:09:58.946705 19047 layer_factory.hpp:77] Creating layer Transition3/conv_Transition3/relu_0_split
I1106 20:09:58.946710 19047 net.cpp:100] Creating Layer Transition3/conv_Transition3/relu_0_split
I1106 20:09:58.946714 19047 net.cpp:434] Transition3/conv_Transition3/relu_0_split <- Transition3/conv
I1106 20:09:58.946720 19047 net.cpp:408] Transition3/conv_Transition3/relu_0_split -> Transition3/conv_Transition3/relu_0_split_0
I1106 20:09:58.946727 19047 net.cpp:408] Transition3/conv_Transition3/relu_0_split -> Transition3/conv_Transition3/relu_0_split_1
I1106 20:09:58.946732 19047 net.cpp:408] Transition3/conv_Transition3/relu_0_split -> Transition3/conv_Transition3/relu_0_split_2
I1106 20:09:58.946736 19047 net.cpp:408] Transition3/conv_Transition3/relu_0_split -> Transition3/conv_Transition3/relu_0_split_3
I1106 20:09:58.946836 19047 net.cpp:150] Setting up Transition3/conv_Transition3/relu_0_split
I1106 20:09:58.946844 19047 net.cpp:157] Top shape: 8 512 40 40 (6553600)
I1106 20:09:58.946848 19047 net.cpp:157] Top shape: 8 512 40 40 (6553600)
I1106 20:09:58.946851 19047 net.cpp:157] Top shape: 8 512 40 40 (6553600)
I1106 20:09:58.946866 19047 net.cpp:157] Top shape: 8 512 40 40 (6553600)
I1106 20:09:58.946869 19047 net.cpp:165] Memory required for data: 2609971488
I1106 20:09:58.946873 19047 layer_factory.hpp:77] Creating layer Transition3/pooling
I1106 20:09:58.946882 19047 net.cpp:100] Creating Layer Transition3/pooling
I1106 20:09:58.946885 19047 net.cpp:434] Transition3/pooling <- Transition3/conv_Transition3/relu_0_split_0
I1106 20:09:58.946892 19047 net.cpp:408] Transition3/pooling -> Transition3/pooling
I1106 20:09:58.946938 19047 net.cpp:150] Setting up Transition3/pooling
I1106 20:09:58.946945 19047 net.cpp:157] Top shape: 8 512 20 20 (1638400)
I1106 20:09:58.946949 19047 net.cpp:165] Memory required for data: 2616525088
I1106 20:09:58.946951 19047 layer_factory.hpp:77] Creating layer Transition3/pooling_Transition3/pooling_0_split
I1106 20:09:58.946955 19047 net.cpp:100] Creating Layer Transition3/pooling_Transition3/pooling_0_split
I1106 20:09:58.946959 19047 net.cpp:434] Transition3/pooling_Transition3/pooling_0_split <- Transition3/pooling
I1106 20:09:58.946964 19047 net.cpp:408] Transition3/pooling_Transition3/pooling_0_split -> Transition3/pooling_Transition3/pooling_0_split_0
I1106 20:09:58.946969 19047 net.cpp:408] Transition3/pooling_Transition3/pooling_0_split -> Transition3/pooling_Transition3/pooling_0_split_1
I1106 20:09:58.947007 19047 net.cpp:150] Setting up Transition3/pooling_Transition3/pooling_0_split
I1106 20:09:58.947012 19047 net.cpp:157] Top shape: 8 512 20 20 (1638400)
I1106 20:09:58.947016 19047 net.cpp:157] Top shape: 8 512 20 20 (1638400)
I1106 20:09:58.947019 19047 net.cpp:165] Memory required for data: 2629632288
I1106 20:09:58.947022 19047 layer_factory.hpp:77] Creating layer DiverseBlock4a/conv
I1106 20:09:58.947032 19047 net.cpp:100] Creating Layer DiverseBlock4a/conv
I1106 20:09:58.947036 19047 net.cpp:434] DiverseBlock4a/conv <- Transition3/pooling_Transition3/pooling_0_split_0
I1106 20:09:58.947042 19047 net.cpp:408] DiverseBlock4a/conv -> DiverseBlock4a/conv
I1106 20:09:58.954958 19047 net.cpp:150] Setting up DiverseBlock4a/conv
I1106 20:09:58.954973 19047 net.cpp:157] Top shape: 8 192 20 20 (614400)
I1106 20:09:58.954977 19047 net.cpp:165] Memory required for data: 2632089888
I1106 20:09:58.954982 19047 layer_factory.hpp:77] Creating layer DiverseBlock4a/bn
I1106 20:09:58.954989 19047 net.cpp:100] Creating Layer DiverseBlock4a/bn
I1106 20:09:58.954993 19047 net.cpp:434] DiverseBlock4a/bn <- DiverseBlock4a/conv
I1106 20:09:58.954998 19047 net.cpp:395] DiverseBlock4a/bn -> DiverseBlock4a/conv (in-place)
I1106 20:09:58.955231 19047 net.cpp:150] Setting up DiverseBlock4a/bn
I1106 20:09:58.955240 19047 net.cpp:157] Top shape: 8 192 20 20 (614400)
I1106 20:09:58.955245 19047 net.cpp:165] Memory required for data: 2634547488
I1106 20:09:58.955251 19047 layer_factory.hpp:77] Creating layer DiverseBlock4a/scale
I1106 20:09:58.955260 19047 net.cpp:100] Creating Layer DiverseBlock4a/scale
I1106 20:09:58.955263 19047 net.cpp:434] DiverseBlock4a/scale <- DiverseBlock4a/conv
I1106 20:09:58.955267 19047 net.cpp:395] DiverseBlock4a/scale -> DiverseBlock4a/conv (in-place)
I1106 20:09:58.955312 19047 layer_factory.hpp:77] Creating layer DiverseBlock4a/scale
I1106 20:09:58.955440 19047 net.cpp:150] Setting up DiverseBlock4a/scale
I1106 20:09:58.955451 19047 net.cpp:157] Top shape: 8 192 20 20 (614400)
I1106 20:09:58.955456 19047 net.cpp:165] Memory required for data: 2637005088
I1106 20:09:58.955461 19047 layer_factory.hpp:77] Creating layer DiverseBlock4a/relu
I1106 20:09:58.955466 19047 net.cpp:100] Creating Layer DiverseBlock4a/relu
I1106 20:09:58.955471 19047 net.cpp:434] DiverseBlock4a/relu <- DiverseBlock4a/conv
I1106 20:09:58.955477 19047 net.cpp:395] DiverseBlock4a/relu -> DiverseBlock4a/conv (in-place)
I1106 20:09:58.955935 19047 net.cpp:150] Setting up DiverseBlock4a/relu
I1106 20:09:58.955946 19047 net.cpp:157] Top shape: 8 192 20 20 (614400)
I1106 20:09:58.955960 19047 net.cpp:165] Memory required for data: 2639462688
I1106 20:09:58.955963 19047 layer_factory.hpp:77] Creating layer DiverseBlock4a/conv_DiverseBlock4a/relu_0_split
I1106 20:09:58.955981 19047 net.cpp:100] Creating Layer DiverseBlock4a/conv_DiverseBlock4a/relu_0_split
I1106 20:09:58.955986 19047 net.cpp:434] DiverseBlock4a/conv_DiverseBlock4a/relu_0_split <- DiverseBlock4a/conv
I1106 20:09:58.955991 19047 net.cpp:408] DiverseBlock4a/conv_DiverseBlock4a/relu_0_split -> DiverseBlock4a/conv_DiverseBlock4a/relu_0_split_0
I1106 20:09:58.955999 19047 net.cpp:408] DiverseBlock4a/conv_DiverseBlock4a/relu_0_split -> DiverseBlock4a/conv_DiverseBlock4a/relu_0_split_1
I1106 20:09:58.956058 19047 net.cpp:150] Setting up DiverseBlock4a/conv_DiverseBlock4a/relu_0_split
I1106 20:09:58.956064 19047 net.cpp:157] Top shape: 8 192 20 20 (614400)
I1106 20:09:58.956068 19047 net.cpp:157] Top shape: 8 192 20 20 (614400)
I1106 20:09:58.956070 19047 net.cpp:165] Memory required for data: 2644377888
I1106 20:09:58.956073 19047 layer_factory.hpp:77] Creating layer DiverseBlock4b/conv
I1106 20:09:58.956086 19047 net.cpp:100] Creating Layer DiverseBlock4b/conv
I1106 20:09:58.956090 19047 net.cpp:434] DiverseBlock4b/conv <- DiverseBlock4a/conv_DiverseBlock4a/relu_0_split_0
I1106 20:09:58.956096 19047 net.cpp:408] DiverseBlock4b/conv -> DiverseBlock4b/conv
I1106 20:09:58.960688 19047 net.cpp:150] Setting up DiverseBlock4b/conv
I1106 20:09:58.960703 19047 net.cpp:157] Top shape: 8 192 20 20 (614400)
I1106 20:09:58.960707 19047 net.cpp:165] Memory required for data: 2646835488
I1106 20:09:58.960712 19047 layer_factory.hpp:77] Creating layer DiverseBlock4b/bn
I1106 20:09:58.960721 19047 net.cpp:100] Creating Layer DiverseBlock4b/bn
I1106 20:09:58.960724 19047 net.cpp:434] DiverseBlock4b/bn <- DiverseBlock4b/conv
I1106 20:09:58.960731 19047 net.cpp:395] DiverseBlock4b/bn -> DiverseBlock4b/conv (in-place)
I1106 20:09:58.960969 19047 net.cpp:150] Setting up DiverseBlock4b/bn
I1106 20:09:58.960978 19047 net.cpp:157] Top shape: 8 192 20 20 (614400)
I1106 20:09:58.960981 19047 net.cpp:165] Memory required for data: 2649293088
I1106 20:09:58.960988 19047 layer_factory.hpp:77] Creating layer DiverseBlock4b/scale
I1106 20:09:58.960995 19047 net.cpp:100] Creating Layer DiverseBlock4b/scale
I1106 20:09:58.960999 19047 net.cpp:434] DiverseBlock4b/scale <- DiverseBlock4b/conv
I1106 20:09:58.961004 19047 net.cpp:395] DiverseBlock4b/scale -> DiverseBlock4b/conv (in-place)
I1106 20:09:58.961048 19047 layer_factory.hpp:77] Creating layer DiverseBlock4b/scale
I1106 20:09:58.961179 19047 net.cpp:150] Setting up DiverseBlock4b/scale
I1106 20:09:58.961187 19047 net.cpp:157] Top shape: 8 192 20 20 (614400)
I1106 20:09:58.961190 19047 net.cpp:165] Memory required for data: 2651750688
I1106 20:09:58.961196 19047 layer_factory.hpp:77] Creating layer DiverseBlock4b/relu
I1106 20:09:58.961203 19047 net.cpp:100] Creating Layer DiverseBlock4b/relu
I1106 20:09:58.961206 19047 net.cpp:434] DiverseBlock4b/relu <- DiverseBlock4b/conv
I1106 20:09:58.961211 19047 net.cpp:395] DiverseBlock4b/relu -> DiverseBlock4b/conv (in-place)
I1106 20:09:58.961663 19047 net.cpp:150] Setting up DiverseBlock4b/relu
I1106 20:09:58.961673 19047 net.cpp:157] Top shape: 8 192 20 20 (614400)
I1106 20:09:58.961688 19047 net.cpp:165] Memory required for data: 2654208288
I1106 20:09:58.961691 19047 layer_factory.hpp:77] Creating layer DiverseBlock4b/conv_DiverseBlock4b/relu_0_split
I1106 20:09:58.961696 19047 net.cpp:100] Creating Layer DiverseBlock4b/conv_DiverseBlock4b/relu_0_split
I1106 20:09:58.961700 19047 net.cpp:434] DiverseBlock4b/conv_DiverseBlock4b/relu_0_split <- DiverseBlock4b/conv
I1106 20:09:58.961706 19047 net.cpp:408] DiverseBlock4b/conv_DiverseBlock4b/relu_0_split -> DiverseBlock4b/conv_DiverseBlock4b/relu_0_split_0
I1106 20:09:58.961712 19047 net.cpp:408] DiverseBlock4b/conv_DiverseBlock4b/relu_0_split -> DiverseBlock4b/conv_DiverseBlock4b/relu_0_split_1
I1106 20:09:58.961772 19047 net.cpp:150] Setting up DiverseBlock4b/conv_DiverseBlock4b/relu_0_split
I1106 20:09:58.961779 19047 net.cpp:157] Top shape: 8 192 20 20 (614400)
I1106 20:09:58.961782 19047 net.cpp:157] Top shape: 8 192 20 20 (614400)
I1106 20:09:58.961786 19047 net.cpp:165] Memory required for data: 2659123488
I1106 20:09:58.961798 19047 layer_factory.hpp:77] Creating layer DiverseBlock4c/conv
I1106 20:09:58.961809 19047 net.cpp:100] Creating Layer DiverseBlock4c/conv
I1106 20:09:58.961813 19047 net.cpp:434] DiverseBlock4c/conv <- DiverseBlock4b/conv_DiverseBlock4b/relu_0_split_0
I1106 20:09:58.961819 19047 net.cpp:408] DiverseBlock4c/conv -> DiverseBlock4c/conv
I1106 20:09:58.967576 19047 net.cpp:150] Setting up DiverseBlock4c/conv
I1106 20:09:58.967592 19047 net.cpp:157] Top shape: 8 192 20 20 (614400)
I1106 20:09:58.967595 19047 net.cpp:165] Memory required for data: 2661581088
I1106 20:09:58.967600 19047 layer_factory.hpp:77] Creating layer DiverseBlock4c/bn
I1106 20:09:58.967607 19047 net.cpp:100] Creating Layer DiverseBlock4c/bn
I1106 20:09:58.967612 19047 net.cpp:434] DiverseBlock4c/bn <- DiverseBlock4c/conv
I1106 20:09:58.967617 19047 net.cpp:395] DiverseBlock4c/bn -> DiverseBlock4c/conv (in-place)
I1106 20:09:58.967861 19047 net.cpp:150] Setting up DiverseBlock4c/bn
I1106 20:09:58.967870 19047 net.cpp:157] Top shape: 8 192 20 20 (614400)
I1106 20:09:58.967873 19047 net.cpp:165] Memory required for data: 2664038688
I1106 20:09:58.967882 19047 layer_factory.hpp:77] Creating layer DiverseBlock4c/scale
I1106 20:09:58.967888 19047 net.cpp:100] Creating Layer DiverseBlock4c/scale
I1106 20:09:58.967891 19047 net.cpp:434] DiverseBlock4c/scale <- DiverseBlock4c/conv
I1106 20:09:58.967896 19047 net.cpp:395] DiverseBlock4c/scale -> DiverseBlock4c/conv (in-place)
I1106 20:09:58.967943 19047 layer_factory.hpp:77] Creating layer DiverseBlock4c/scale
I1106 20:09:58.968075 19047 net.cpp:150] Setting up DiverseBlock4c/scale
I1106 20:09:58.968083 19047 net.cpp:157] Top shape: 8 192 20 20 (614400)
I1106 20:09:58.968086 19047 net.cpp:165] Memory required for data: 2666496288
I1106 20:09:58.968092 19047 layer_factory.hpp:77] Creating layer DiverseBlock4c/relu
I1106 20:09:58.968101 19047 net.cpp:100] Creating Layer DiverseBlock4c/relu
I1106 20:09:58.968104 19047 net.cpp:434] DiverseBlock4c/relu <- DiverseBlock4c/conv
I1106 20:09:58.968108 19047 net.cpp:395] DiverseBlock4c/relu -> DiverseBlock4c/conv (in-place)
I1106 20:09:58.968775 19047 net.cpp:150] Setting up DiverseBlock4c/relu
I1106 20:09:58.968799 19047 net.cpp:157] Top shape: 8 192 20 20 (614400)
I1106 20:09:58.968802 19047 net.cpp:165] Memory required for data: 2668953888
I1106 20:09:58.968806 19047 layer_factory.hpp:77] Creating layer DiverseBlock4c/conv_DiverseBlock4c/relu_0_split
I1106 20:09:58.968811 19047 net.cpp:100] Creating Layer DiverseBlock4c/conv_DiverseBlock4c/relu_0_split
I1106 20:09:58.968816 19047 net.cpp:434] DiverseBlock4c/conv_DiverseBlock4c/relu_0_split <- DiverseBlock4c/conv
I1106 20:09:58.968822 19047 net.cpp:408] DiverseBlock4c/conv_DiverseBlock4c/relu_0_split -> DiverseBlock4c/conv_DiverseBlock4c/relu_0_split_0
I1106 20:09:58.968829 19047 net.cpp:408] DiverseBlock4c/conv_DiverseBlock4c/relu_0_split -> DiverseBlock4c/conv_DiverseBlock4c/relu_0_split_1
I1106 20:09:58.968889 19047 net.cpp:150] Setting up DiverseBlock4c/conv_DiverseBlock4c/relu_0_split
I1106 20:09:58.968895 19047 net.cpp:157] Top shape: 8 192 20 20 (614400)
I1106 20:09:58.968899 19047 net.cpp:157] Top shape: 8 192 20 20 (614400)
I1106 20:09:58.968901 19047 net.cpp:165] Memory required for data: 2673869088
I1106 20:09:58.968904 19047 layer_factory.hpp:77] Creating layer DiverseBlock4d/conv
I1106 20:09:58.968915 19047 net.cpp:100] Creating Layer DiverseBlock4d/conv
I1106 20:09:58.968919 19047 net.cpp:434] DiverseBlock4d/conv <- DiverseBlock4c/conv_DiverseBlock4c/relu_0_split_0
I1106 20:09:58.968924 19047 net.cpp:408] DiverseBlock4d/conv -> DiverseBlock4d/conv
I1106 20:09:58.973407 19047 net.cpp:150] Setting up DiverseBlock4d/conv
I1106 20:09:58.973433 19047 net.cpp:157] Top shape: 8 192 20 20 (614400)
I1106 20:09:58.973436 19047 net.cpp:165] Memory required for data: 2676326688
I1106 20:09:58.973441 19047 layer_factory.hpp:77] Creating layer DiverseBlock4d/bn
I1106 20:09:58.973450 19047 net.cpp:100] Creating Layer DiverseBlock4d/bn
I1106 20:09:58.973454 19047 net.cpp:434] DiverseBlock4d/bn <- DiverseBlock4d/conv
I1106 20:09:58.973482 19047 net.cpp:395] DiverseBlock4d/bn -> DiverseBlock4d/conv (in-place)
I1106 20:09:58.973712 19047 net.cpp:150] Setting up DiverseBlock4d/bn
I1106 20:09:58.973722 19047 net.cpp:157] Top shape: 8 192 20 20 (614400)
I1106 20:09:58.973726 19047 net.cpp:165] Memory required for data: 2678784288
I1106 20:09:58.973732 19047 layer_factory.hpp:77] Creating layer DiverseBlock4d/scale
I1106 20:09:58.973739 19047 net.cpp:100] Creating Layer DiverseBlock4d/scale
I1106 20:09:58.973743 19047 net.cpp:434] DiverseBlock4d/scale <- DiverseBlock4d/conv
I1106 20:09:58.973747 19047 net.cpp:395] DiverseBlock4d/scale -> DiverseBlock4d/conv (in-place)
I1106 20:09:58.973793 19047 layer_factory.hpp:77] Creating layer DiverseBlock4d/scale
I1106 20:09:58.973922 19047 net.cpp:150] Setting up DiverseBlock4d/scale
I1106 20:09:58.973930 19047 net.cpp:157] Top shape: 8 192 20 20 (614400)
I1106 20:09:58.973933 19047 net.cpp:165] Memory required for data: 2681241888
I1106 20:09:58.973938 19047 layer_factory.hpp:77] Creating layer DiverseBlock4d/relu
I1106 20:09:58.973943 19047 net.cpp:100] Creating Layer DiverseBlock4d/relu
I1106 20:09:58.973946 19047 net.cpp:434] DiverseBlock4d/relu <- DiverseBlock4d/conv
I1106 20:09:58.973950 19047 net.cpp:395] DiverseBlock4d/relu -> DiverseBlock4d/conv (in-place)
I1106 20:09:58.974393 19047 net.cpp:150] Setting up DiverseBlock4d/relu
I1106 20:09:58.974406 19047 net.cpp:157] Top shape: 8 192 20 20 (614400)
I1106 20:09:58.974419 19047 net.cpp:165] Memory required for data: 2683699488
I1106 20:09:58.974422 19047 layer_factory.hpp:77] Creating layer DiverseBlock4d/conv_DiverseBlock4d/relu_0_split
I1106 20:09:58.974429 19047 net.cpp:100] Creating Layer DiverseBlock4d/conv_DiverseBlock4d/relu_0_split
I1106 20:09:58.974433 19047 net.cpp:434] DiverseBlock4d/conv_DiverseBlock4d/relu_0_split <- DiverseBlock4d/conv
I1106 20:09:58.974438 19047 net.cpp:408] DiverseBlock4d/conv_DiverseBlock4d/relu_0_split -> DiverseBlock4d/conv_DiverseBlock4d/relu_0_split_0
I1106 20:09:58.974444 19047 net.cpp:408] DiverseBlock4d/conv_DiverseBlock4d/relu_0_split -> DiverseBlock4d/conv_DiverseBlock4d/relu_0_split_1
I1106 20:09:58.974495 19047 net.cpp:150] Setting up DiverseBlock4d/conv_DiverseBlock4d/relu_0_split
I1106 20:09:58.974501 19047 net.cpp:157] Top shape: 8 192 20 20 (614400)
I1106 20:09:58.974504 19047 net.cpp:157] Top shape: 8 192 20 20 (614400)
I1106 20:09:58.974508 19047 net.cpp:165] Memory required for data: 2688614688
I1106 20:09:58.974511 19047 layer_factory.hpp:77] Creating layer DiverseBlock4e/conv
I1106 20:09:58.974520 19047 net.cpp:100] Creating Layer DiverseBlock4e/conv
I1106 20:09:58.974524 19047 net.cpp:434] DiverseBlock4e/conv <- DiverseBlock4d/conv_DiverseBlock4d/relu_0_split_0
I1106 20:09:58.974530 19047 net.cpp:408] DiverseBlock4e/conv -> DiverseBlock4e/conv
I1106 20:09:58.978924 19047 net.cpp:150] Setting up DiverseBlock4e/conv
I1106 20:09:58.978940 19047 net.cpp:157] Top shape: 8 192 20 20 (614400)
I1106 20:09:58.978943 19047 net.cpp:165] Memory required for data: 2691072288
I1106 20:09:58.978947 19047 layer_factory.hpp:77] Creating layer DiverseBlock4e/bn
I1106 20:09:58.978956 19047 net.cpp:100] Creating Layer DiverseBlock4e/bn
I1106 20:09:58.978960 19047 net.cpp:434] DiverseBlock4e/bn <- DiverseBlock4e/conv
I1106 20:09:58.978965 19047 net.cpp:395] DiverseBlock4e/bn -> DiverseBlock4e/conv (in-place)
I1106 20:09:58.979194 19047 net.cpp:150] Setting up DiverseBlock4e/bn
I1106 20:09:58.979204 19047 net.cpp:157] Top shape: 8 192 20 20 (614400)
I1106 20:09:58.979207 19047 net.cpp:165] Memory required for data: 2693529888
I1106 20:09:58.979214 19047 layer_factory.hpp:77] Creating layer DiverseBlock4e/scale
I1106 20:09:58.979221 19047 net.cpp:100] Creating Layer DiverseBlock4e/scale
I1106 20:09:58.979225 19047 net.cpp:434] DiverseBlock4e/scale <- DiverseBlock4e/conv
I1106 20:09:58.979229 19047 net.cpp:395] DiverseBlock4e/scale -> DiverseBlock4e/conv (in-place)
I1106 20:09:58.979274 19047 layer_factory.hpp:77] Creating layer DiverseBlock4e/scale
I1106 20:09:58.979415 19047 net.cpp:150] Setting up DiverseBlock4e/scale
I1106 20:09:58.979425 19047 net.cpp:157] Top shape: 8 192 20 20 (614400)
I1106 20:09:58.979429 19047 net.cpp:165] Memory required for data: 2695987488
I1106 20:09:58.979434 19047 layer_factory.hpp:77] Creating layer DiverseBlock4e/relu
I1106 20:09:58.979439 19047 net.cpp:100] Creating Layer DiverseBlock4e/relu
I1106 20:09:58.979442 19047 net.cpp:434] DiverseBlock4e/relu <- DiverseBlock4e/conv
I1106 20:09:58.979449 19047 net.cpp:395] DiverseBlock4e/relu -> DiverseBlock4e/conv (in-place)
I1106 20:09:58.981420 19047 net.cpp:150] Setting up DiverseBlock4e/relu
I1106 20:09:58.981433 19047 net.cpp:157] Top shape: 8 192 20 20 (614400)
I1106 20:09:58.981437 19047 net.cpp:165] Memory required for data: 2698445088
I1106 20:09:58.981441 19047 layer_factory.hpp:77] Creating layer Transition4A/concat
I1106 20:09:58.981451 19047 net.cpp:100] Creating Layer Transition4A/concat
I1106 20:09:58.981456 19047 net.cpp:434] Transition4A/concat <- Transition3/pooling_Transition3/pooling_0_split_1
I1106 20:09:58.981459 19047 net.cpp:434] Transition4A/concat <- DiverseBlock4a/conv_DiverseBlock4a/relu_0_split_1
I1106 20:09:58.981463 19047 net.cpp:434] Transition4A/concat <- DiverseBlock4b/conv_DiverseBlock4b/relu_0_split_1
I1106 20:09:58.981467 19047 net.cpp:434] Transition4A/concat <- DiverseBlock4c/conv_DiverseBlock4c/relu_0_split_1
I1106 20:09:58.981470 19047 net.cpp:434] Transition4A/concat <- DiverseBlock4d/conv_DiverseBlock4d/relu_0_split_1
I1106 20:09:58.981473 19047 net.cpp:434] Transition4A/concat <- DiverseBlock4e/conv
I1106 20:09:58.981477 19047 net.cpp:408] Transition4A/concat -> Transition4A/concat
I1106 20:09:58.981526 19047 net.cpp:150] Setting up Transition4A/concat
I1106 20:09:58.981534 19047 net.cpp:157] Top shape: 8 1472 20 20 (4710400)
I1106 20:09:58.981535 19047 net.cpp:165] Memory required for data: 2717286688
I1106 20:09:58.981539 19047 layer_factory.hpp:77] Creating layer Transition4A/conv
I1106 20:09:58.981547 19047 net.cpp:100] Creating Layer Transition4A/conv
I1106 20:09:58.981551 19047 net.cpp:434] Transition4A/conv <- Transition4A/concat
I1106 20:09:58.981557 19047 net.cpp:408] Transition4A/conv -> Transition4A/conv
I1106 20:09:58.991161 19047 net.cpp:150] Setting up Transition4A/conv
I1106 20:09:58.991178 19047 net.cpp:157] Top shape: 8 768 20 20 (2457600)
I1106 20:09:58.991181 19047 net.cpp:165] Memory required for data: 2727117088
I1106 20:09:58.991186 19047 layer_factory.hpp:77] Creating layer Transition4A/bn
I1106 20:09:58.991195 19047 net.cpp:100] Creating Layer Transition4A/bn
I1106 20:09:58.991199 19047 net.cpp:434] Transition4A/bn <- Transition4A/conv
I1106 20:09:58.991204 19047 net.cpp:395] Transition4A/bn -> Transition4A/conv (in-place)
I1106 20:09:58.991430 19047 net.cpp:150] Setting up Transition4A/bn
I1106 20:09:58.991439 19047 net.cpp:157] Top shape: 8 768 20 20 (2457600)
I1106 20:09:58.991442 19047 net.cpp:165] Memory required for data: 2736947488
I1106 20:09:58.991449 19047 layer_factory.hpp:77] Creating layer Transition4A/scale
I1106 20:09:58.991454 19047 net.cpp:100] Creating Layer Transition4A/scale
I1106 20:09:58.991458 19047 net.cpp:434] Transition4A/scale <- Transition4A/conv
I1106 20:09:58.991463 19047 net.cpp:395] Transition4A/scale -> Transition4A/conv (in-place)
I1106 20:09:58.991510 19047 layer_factory.hpp:77] Creating layer Transition4A/scale
I1106 20:09:58.991631 19047 net.cpp:150] Setting up Transition4A/scale
I1106 20:09:58.991639 19047 net.cpp:157] Top shape: 8 768 20 20 (2457600)
I1106 20:09:58.991642 19047 net.cpp:165] Memory required for data: 2746777888
I1106 20:09:58.991648 19047 layer_factory.hpp:77] Creating layer Transition4A/relu
I1106 20:09:58.991653 19047 net.cpp:100] Creating Layer Transition4A/relu
I1106 20:09:58.991657 19047 net.cpp:434] Transition4A/relu <- Transition4A/conv
I1106 20:09:58.991662 19047 net.cpp:395] Transition4A/relu -> Transition4A/conv (in-place)
I1106 20:09:58.992101 19047 net.cpp:150] Setting up Transition4A/relu
I1106 20:09:58.992115 19047 net.cpp:157] Top shape: 8 768 20 20 (2457600)
I1106 20:09:58.992161 19047 net.cpp:165] Memory required for data: 2756608288
I1106 20:09:58.992166 19047 layer_factory.hpp:77] Creating layer Transition4A/conv_Transition4A/relu_0_split
I1106 20:09:58.992172 19047 net.cpp:100] Creating Layer Transition4A/conv_Transition4A/relu_0_split
I1106 20:09:58.992175 19047 net.cpp:434] Transition4A/conv_Transition4A/relu_0_split <- Transition4A/conv
I1106 20:09:58.992180 19047 net.cpp:408] Transition4A/conv_Transition4A/relu_0_split -> Transition4A/conv_Transition4A/relu_0_split_0
I1106 20:09:58.992187 19047 net.cpp:408] Transition4A/conv_Transition4A/relu_0_split -> Transition4A/conv_Transition4A/relu_0_split_1
I1106 20:09:58.992241 19047 net.cpp:150] Setting up Transition4A/conv_Transition4A/relu_0_split
I1106 20:09:58.992254 19047 net.cpp:157] Top shape: 8 768 20 20 (2457600)
I1106 20:09:58.992257 19047 net.cpp:157] Top shape: 8 768 20 20 (2457600)
I1106 20:09:58.992260 19047 net.cpp:165] Memory required for data: 2776269088
I1106 20:09:58.992264 19047 layer_factory.hpp:77] Creating layer DiverseBlock4f/conv
I1106 20:09:58.992272 19047 net.cpp:100] Creating Layer DiverseBlock4f/conv
I1106 20:09:58.992276 19047 net.cpp:434] DiverseBlock4f/conv <- Transition4A/conv_Transition4A/relu_0_split_0
I1106 20:09:58.992285 19047 net.cpp:408] DiverseBlock4f/conv -> DiverseBlock4f/conv
I1106 20:09:59.003468 19047 net.cpp:150] Setting up DiverseBlock4f/conv
I1106 20:09:59.003486 19047 net.cpp:157] Top shape: 8 192 20 20 (614400)
I1106 20:09:59.003490 19047 net.cpp:165] Memory required for data: 2778726688
I1106 20:09:59.003496 19047 layer_factory.hpp:77] Creating layer DiverseBlock4f/bn
I1106 20:09:59.003504 19047 net.cpp:100] Creating Layer DiverseBlock4f/bn
I1106 20:09:59.003507 19047 net.cpp:434] DiverseBlock4f/bn <- DiverseBlock4f/conv
I1106 20:09:59.003515 19047 net.cpp:395] DiverseBlock4f/bn -> DiverseBlock4f/conv (in-place)
I1106 20:09:59.003751 19047 net.cpp:150] Setting up DiverseBlock4f/bn
I1106 20:09:59.003760 19047 net.cpp:157] Top shape: 8 192 20 20 (614400)
I1106 20:09:59.003763 19047 net.cpp:165] Memory required for data: 2781184288
I1106 20:09:59.003794 19047 layer_factory.hpp:77] Creating layer DiverseBlock4f/scale
I1106 20:09:59.003804 19047 net.cpp:100] Creating Layer DiverseBlock4f/scale
I1106 20:09:59.003808 19047 net.cpp:434] DiverseBlock4f/scale <- DiverseBlock4f/conv
I1106 20:09:59.003814 19047 net.cpp:395] DiverseBlock4f/scale -> DiverseBlock4f/conv (in-place)
I1106 20:09:59.003862 19047 layer_factory.hpp:77] Creating layer DiverseBlock4f/scale
I1106 20:09:59.003991 19047 net.cpp:150] Setting up DiverseBlock4f/scale
I1106 20:09:59.004000 19047 net.cpp:157] Top shape: 8 192 20 20 (614400)
I1106 20:09:59.004004 19047 net.cpp:165] Memory required for data: 2783641888
I1106 20:09:59.004009 19047 layer_factory.hpp:77] Creating layer DiverseBlock4f/relu
I1106 20:09:59.004015 19047 net.cpp:100] Creating Layer DiverseBlock4f/relu
I1106 20:09:59.004019 19047 net.cpp:434] DiverseBlock4f/relu <- DiverseBlock4f/conv
I1106 20:09:59.004024 19047 net.cpp:395] DiverseBlock4f/relu -> DiverseBlock4f/conv (in-place)
I1106 20:09:59.004498 19047 net.cpp:150] Setting up DiverseBlock4f/relu
I1106 20:09:59.004519 19047 net.cpp:157] Top shape: 8 192 20 20 (614400)
I1106 20:09:59.004534 19047 net.cpp:165] Memory required for data: 2786099488
I1106 20:09:59.004536 19047 layer_factory.hpp:77] Creating layer DiverseBlock4f/conv_DiverseBlock4f/relu_0_split
I1106 20:09:59.004541 19047 net.cpp:100] Creating Layer DiverseBlock4f/conv_DiverseBlock4f/relu_0_split
I1106 20:09:59.004545 19047 net.cpp:434] DiverseBlock4f/conv_DiverseBlock4f/relu_0_split <- DiverseBlock4f/conv
I1106 20:09:59.004552 19047 net.cpp:408] DiverseBlock4f/conv_DiverseBlock4f/relu_0_split -> DiverseBlock4f/conv_DiverseBlock4f/relu_0_split_0
I1106 20:09:59.004559 19047 net.cpp:408] DiverseBlock4f/conv_DiverseBlock4f/relu_0_split -> DiverseBlock4f/conv_DiverseBlock4f/relu_0_split_1
I1106 20:09:59.004629 19047 net.cpp:150] Setting up DiverseBlock4f/conv_DiverseBlock4f/relu_0_split
I1106 20:09:59.004652 19047 net.cpp:157] Top shape: 8 192 20 20 (614400)
I1106 20:09:59.004667 19047 net.cpp:157] Top shape: 8 192 20 20 (614400)
I1106 20:09:59.004670 19047 net.cpp:165] Memory required for data: 2791014688
I1106 20:09:59.004674 19047 layer_factory.hpp:77] Creating layer DiverseBlock4g/conv
I1106 20:09:59.004683 19047 net.cpp:100] Creating Layer DiverseBlock4g/conv
I1106 20:09:59.004688 19047 net.cpp:434] DiverseBlock4g/conv <- DiverseBlock4f/conv_DiverseBlock4f/relu_0_split_0
I1106 20:09:59.004693 19047 net.cpp:408] DiverseBlock4g/conv -> DiverseBlock4g/conv
I1106 20:09:59.010644 19047 net.cpp:150] Setting up DiverseBlock4g/conv
I1106 20:09:59.010660 19047 net.cpp:157] Top shape: 8 192 20 20 (614400)
I1106 20:09:59.010663 19047 net.cpp:165] Memory required for data: 2793472288
I1106 20:09:59.010668 19047 layer_factory.hpp:77] Creating layer DiverseBlock4g/bn
I1106 20:09:59.010676 19047 net.cpp:100] Creating Layer DiverseBlock4g/bn
I1106 20:09:59.010679 19047 net.cpp:434] DiverseBlock4g/bn <- DiverseBlock4g/conv
I1106 20:09:59.010684 19047 net.cpp:395] DiverseBlock4g/bn -> DiverseBlock4g/conv (in-place)
I1106 20:09:59.010921 19047 net.cpp:150] Setting up DiverseBlock4g/bn
I1106 20:09:59.010929 19047 net.cpp:157] Top shape: 8 192 20 20 (614400)
I1106 20:09:59.010932 19047 net.cpp:165] Memory required for data: 2795929888
I1106 20:09:59.010939 19047 layer_factory.hpp:77] Creating layer DiverseBlock4g/scale
I1106 20:09:59.010951 19047 net.cpp:100] Creating Layer DiverseBlock4g/scale
I1106 20:09:59.010954 19047 net.cpp:434] DiverseBlock4g/scale <- DiverseBlock4g/conv
I1106 20:09:59.010958 19047 net.cpp:395] DiverseBlock4g/scale -> DiverseBlock4g/conv (in-place)
I1106 20:09:59.011005 19047 layer_factory.hpp:77] Creating layer DiverseBlock4g/scale
I1106 20:09:59.011137 19047 net.cpp:150] Setting up DiverseBlock4g/scale
I1106 20:09:59.011147 19047 net.cpp:157] Top shape: 8 192 20 20 (614400)
I1106 20:09:59.011150 19047 net.cpp:165] Memory required for data: 2798387488
I1106 20:09:59.011157 19047 layer_factory.hpp:77] Creating layer DiverseBlock4g/relu
I1106 20:09:59.011164 19047 net.cpp:100] Creating Layer DiverseBlock4g/relu
I1106 20:09:59.011168 19047 net.cpp:434] DiverseBlock4g/relu <- DiverseBlock4g/conv
I1106 20:09:59.011171 19047 net.cpp:395] DiverseBlock4g/relu -> DiverseBlock4g/conv (in-place)
I1106 20:09:59.011776 19047 net.cpp:150] Setting up DiverseBlock4g/relu
I1106 20:09:59.011801 19047 net.cpp:157] Top shape: 8 192 20 20 (614400)
I1106 20:09:59.011804 19047 net.cpp:165] Memory required for data: 2800845088
I1106 20:09:59.011809 19047 layer_factory.hpp:77] Creating layer DiverseBlock4g/conv_DiverseBlock4g/relu_0_split
I1106 20:09:59.011814 19047 net.cpp:100] Creating Layer DiverseBlock4g/conv_DiverseBlock4g/relu_0_split
I1106 20:09:59.011818 19047 net.cpp:434] DiverseBlock4g/conv_DiverseBlock4g/relu_0_split <- DiverseBlock4g/conv
I1106 20:09:59.011826 19047 net.cpp:408] DiverseBlock4g/conv_DiverseBlock4g/relu_0_split -> DiverseBlock4g/conv_DiverseBlock4g/relu_0_split_0
I1106 20:09:59.011831 19047 net.cpp:408] DiverseBlock4g/conv_DiverseBlock4g/relu_0_split -> DiverseBlock4g/conv_DiverseBlock4g/relu_0_split_1
I1106 20:09:59.011883 19047 net.cpp:150] Setting up DiverseBlock4g/conv_DiverseBlock4g/relu_0_split
I1106 20:09:59.011890 19047 net.cpp:157] Top shape: 8 192 20 20 (614400)
I1106 20:09:59.011894 19047 net.cpp:157] Top shape: 8 192 20 20 (614400)
I1106 20:09:59.011896 19047 net.cpp:165] Memory required for data: 2805760288
I1106 20:09:59.011899 19047 layer_factory.hpp:77] Creating layer DiverseBlock4h/conv
I1106 20:09:59.011909 19047 net.cpp:100] Creating Layer DiverseBlock4h/conv
I1106 20:09:59.011914 19047 net.cpp:434] DiverseBlock4h/conv <- DiverseBlock4g/conv_DiverseBlock4g/relu_0_split_0
I1106 20:09:59.011919 19047 net.cpp:408] DiverseBlock4h/conv -> DiverseBlock4h/conv
I1106 20:09:59.016330 19047 net.cpp:150] Setting up DiverseBlock4h/conv
I1106 20:09:59.016356 19047 net.cpp:157] Top shape: 8 192 20 20 (614400)
I1106 20:09:59.016360 19047 net.cpp:165] Memory required for data: 2808217888
I1106 20:09:59.016366 19047 layer_factory.hpp:77] Creating layer DiverseBlock4h/bn
I1106 20:09:59.016383 19047 net.cpp:100] Creating Layer DiverseBlock4h/bn
I1106 20:09:59.016388 19047 net.cpp:434] DiverseBlock4h/bn <- DiverseBlock4h/conv
I1106 20:09:59.016405 19047 net.cpp:395] DiverseBlock4h/bn -> DiverseBlock4h/conv (in-place)
I1106 20:09:59.016647 19047 net.cpp:150] Setting up DiverseBlock4h/bn
I1106 20:09:59.016657 19047 net.cpp:157] Top shape: 8 192 20 20 (614400)
I1106 20:09:59.016660 19047 net.cpp:165] Memory required for data: 2810675488
I1106 20:09:59.016667 19047 layer_factory.hpp:77] Creating layer DiverseBlock4h/scale
I1106 20:09:59.016674 19047 net.cpp:100] Creating Layer DiverseBlock4h/scale
I1106 20:09:59.016678 19047 net.cpp:434] DiverseBlock4h/scale <- DiverseBlock4h/conv
I1106 20:09:59.016682 19047 net.cpp:395] DiverseBlock4h/scale -> DiverseBlock4h/conv (in-place)
I1106 20:09:59.016728 19047 layer_factory.hpp:77] Creating layer DiverseBlock4h/scale
I1106 20:09:59.016860 19047 net.cpp:150] Setting up DiverseBlock4h/scale
I1106 20:09:59.016870 19047 net.cpp:157] Top shape: 8 192 20 20 (614400)
I1106 20:09:59.016872 19047 net.cpp:165] Memory required for data: 2813133088
I1106 20:09:59.016878 19047 layer_factory.hpp:77] Creating layer DiverseBlock4h/relu
I1106 20:09:59.016885 19047 net.cpp:100] Creating Layer DiverseBlock4h/relu
I1106 20:09:59.016889 19047 net.cpp:434] DiverseBlock4h/relu <- DiverseBlock4h/conv
I1106 20:09:59.016896 19047 net.cpp:395] DiverseBlock4h/relu -> DiverseBlock4h/conv (in-place)
I1106 20:09:59.017326 19047 net.cpp:150] Setting up DiverseBlock4h/relu
I1106 20:09:59.017338 19047 net.cpp:157] Top shape: 8 192 20 20 (614400)
I1106 20:09:59.017340 19047 net.cpp:165] Memory required for data: 2815590688
I1106 20:09:59.017343 19047 layer_factory.hpp:77] Creating layer DiverseBlock4h/conv_DiverseBlock4h/relu_0_split
I1106 20:09:59.017349 19047 net.cpp:100] Creating Layer DiverseBlock4h/conv_DiverseBlock4h/relu_0_split
I1106 20:09:59.017351 19047 net.cpp:434] DiverseBlock4h/conv_DiverseBlock4h/relu_0_split <- DiverseBlock4h/conv
I1106 20:09:59.017357 19047 net.cpp:408] DiverseBlock4h/conv_DiverseBlock4h/relu_0_split -> DiverseBlock4h/conv_DiverseBlock4h/relu_0_split_0
I1106 20:09:59.017364 19047 net.cpp:408] DiverseBlock4h/conv_DiverseBlock4h/relu_0_split -> DiverseBlock4h/conv_DiverseBlock4h/relu_0_split_1
I1106 20:09:59.017413 19047 net.cpp:150] Setting up DiverseBlock4h/conv_DiverseBlock4h/relu_0_split
I1106 20:09:59.017419 19047 net.cpp:157] Top shape: 8 192 20 20 (614400)
I1106 20:09:59.017422 19047 net.cpp:157] Top shape: 8 192 20 20 (614400)
I1106 20:09:59.017424 19047 net.cpp:165] Memory required for data: 2820505888
I1106 20:09:59.017427 19047 layer_factory.hpp:77] Creating layer DiverseBlock4i/conv
I1106 20:09:59.017437 19047 net.cpp:100] Creating Layer DiverseBlock4i/conv
I1106 20:09:59.017441 19047 net.cpp:434] DiverseBlock4i/conv <- DiverseBlock4h/conv_DiverseBlock4h/relu_0_split_0
I1106 20:09:59.017447 19047 net.cpp:408] DiverseBlock4i/conv -> DiverseBlock4i/conv
I1106 20:09:59.021803 19047 net.cpp:150] Setting up DiverseBlock4i/conv
I1106 20:09:59.021818 19047 net.cpp:157] Top shape: 8 192 20 20 (614400)
I1106 20:09:59.021822 19047 net.cpp:165] Memory required for data: 2822963488
I1106 20:09:59.021826 19047 layer_factory.hpp:77] Creating layer DiverseBlock4i/bn
I1106 20:09:59.021836 19047 net.cpp:100] Creating Layer DiverseBlock4i/bn
I1106 20:09:59.021838 19047 net.cpp:434] DiverseBlock4i/bn <- DiverseBlock4i/conv
I1106 20:09:59.021843 19047 net.cpp:395] DiverseBlock4i/bn -> DiverseBlock4i/conv (in-place)
I1106 20:09:59.022058 19047 net.cpp:150] Setting up DiverseBlock4i/bn
I1106 20:09:59.022068 19047 net.cpp:157] Top shape: 8 192 20 20 (614400)
I1106 20:09:59.022070 19047 net.cpp:165] Memory required for data: 2825421088
I1106 20:09:59.022076 19047 layer_factory.hpp:77] Creating layer DiverseBlock4i/scale
I1106 20:09:59.022081 19047 net.cpp:100] Creating Layer DiverseBlock4i/scale
I1106 20:09:59.022085 19047 net.cpp:434] DiverseBlock4i/scale <- DiverseBlock4i/conv
I1106 20:09:59.022089 19047 net.cpp:395] DiverseBlock4i/scale -> DiverseBlock4i/conv (in-place)
I1106 20:09:59.022148 19047 layer_factory.hpp:77] Creating layer DiverseBlock4i/scale
I1106 20:09:59.022279 19047 net.cpp:150] Setting up DiverseBlock4i/scale
I1106 20:09:59.022287 19047 net.cpp:157] Top shape: 8 192 20 20 (614400)
I1106 20:09:59.022290 19047 net.cpp:165] Memory required for data: 2827878688
I1106 20:09:59.022295 19047 layer_factory.hpp:77] Creating layer DiverseBlock4i/relu
I1106 20:09:59.022318 19047 net.cpp:100] Creating Layer DiverseBlock4i/relu
I1106 20:09:59.022322 19047 net.cpp:434] DiverseBlock4i/relu <- DiverseBlock4i/conv
I1106 20:09:59.022326 19047 net.cpp:395] DiverseBlock4i/relu -> DiverseBlock4i/conv (in-place)
I1106 20:09:59.024256 19047 net.cpp:150] Setting up DiverseBlock4i/relu
I1106 20:09:59.024282 19047 net.cpp:157] Top shape: 8 192 20 20 (614400)
I1106 20:09:59.024286 19047 net.cpp:165] Memory required for data: 2830336288
I1106 20:09:59.024289 19047 layer_factory.hpp:77] Creating layer DiverseBlock4i/conv_DiverseBlock4i/relu_0_split
I1106 20:09:59.024296 19047 net.cpp:100] Creating Layer DiverseBlock4i/conv_DiverseBlock4i/relu_0_split
I1106 20:09:59.024302 19047 net.cpp:434] DiverseBlock4i/conv_DiverseBlock4i/relu_0_split <- DiverseBlock4i/conv
I1106 20:09:59.024307 19047 net.cpp:408] DiverseBlock4i/conv_DiverseBlock4i/relu_0_split -> DiverseBlock4i/conv_DiverseBlock4i/relu_0_split_0
I1106 20:09:59.024314 19047 net.cpp:408] DiverseBlock4i/conv_DiverseBlock4i/relu_0_split -> DiverseBlock4i/conv_DiverseBlock4i/relu_0_split_1
I1106 20:09:59.024368 19047 net.cpp:150] Setting up DiverseBlock4i/conv_DiverseBlock4i/relu_0_split
I1106 20:09:59.024374 19047 net.cpp:157] Top shape: 8 192 20 20 (614400)
I1106 20:09:59.024379 19047 net.cpp:157] Top shape: 8 192 20 20 (614400)
I1106 20:09:59.024381 19047 net.cpp:165] Memory required for data: 2835251488
I1106 20:09:59.024384 19047 layer_factory.hpp:77] Creating layer DiverseBlock4j/conv
I1106 20:09:59.024394 19047 net.cpp:100] Creating Layer DiverseBlock4j/conv
I1106 20:09:59.024397 19047 net.cpp:434] DiverseBlock4j/conv <- DiverseBlock4i/conv_DiverseBlock4i/relu_0_split_0
I1106 20:09:59.024403 19047 net.cpp:408] DiverseBlock4j/conv -> DiverseBlock4j/conv
I1106 20:09:59.028812 19047 net.cpp:150] Setting up DiverseBlock4j/conv
I1106 20:09:59.028827 19047 net.cpp:157] Top shape: 8 192 20 20 (614400)
I1106 20:09:59.028831 19047 net.cpp:165] Memory required for data: 2837709088
I1106 20:09:59.028836 19047 layer_factory.hpp:77] Creating layer DiverseBlock4j/bn
I1106 20:09:59.028846 19047 net.cpp:100] Creating Layer DiverseBlock4j/bn
I1106 20:09:59.028851 19047 net.cpp:434] DiverseBlock4j/bn <- DiverseBlock4j/conv
I1106 20:09:59.028856 19047 net.cpp:395] DiverseBlock4j/bn -> DiverseBlock4j/conv (in-place)
I1106 20:09:59.029073 19047 net.cpp:150] Setting up DiverseBlock4j/bn
I1106 20:09:59.029083 19047 net.cpp:157] Top shape: 8 192 20 20 (614400)
I1106 20:09:59.029086 19047 net.cpp:165] Memory required for data: 2840166688
I1106 20:09:59.029093 19047 layer_factory.hpp:77] Creating layer DiverseBlock4j/scale
I1106 20:09:59.029099 19047 net.cpp:100] Creating Layer DiverseBlock4j/scale
I1106 20:09:59.029103 19047 net.cpp:434] DiverseBlock4j/scale <- DiverseBlock4j/conv
I1106 20:09:59.029108 19047 net.cpp:395] DiverseBlock4j/scale -> DiverseBlock4j/conv (in-place)
I1106 20:09:59.029153 19047 layer_factory.hpp:77] Creating layer DiverseBlock4j/scale
I1106 20:09:59.029281 19047 net.cpp:150] Setting up DiverseBlock4j/scale
I1106 20:09:59.029289 19047 net.cpp:157] Top shape: 8 192 20 20 (614400)
I1106 20:09:59.029292 19047 net.cpp:165] Memory required for data: 2842624288
I1106 20:09:59.029297 19047 layer_factory.hpp:77] Creating layer DiverseBlock4j/relu
I1106 20:09:59.029304 19047 net.cpp:100] Creating Layer DiverseBlock4j/relu
I1106 20:09:59.029307 19047 net.cpp:434] DiverseBlock4j/relu <- DiverseBlock4j/conv
I1106 20:09:59.029311 19047 net.cpp:395] DiverseBlock4j/relu -> DiverseBlock4j/conv (in-place)
I1106 20:09:59.029736 19047 net.cpp:150] Setting up DiverseBlock4j/relu
I1106 20:09:59.029747 19047 net.cpp:157] Top shape: 8 192 20 20 (614400)
I1106 20:09:59.029759 19047 net.cpp:165] Memory required for data: 2845081888
I1106 20:09:59.029764 19047 layer_factory.hpp:77] Creating layer Transition4B/concat
I1106 20:09:59.029772 19047 net.cpp:100] Creating Layer Transition4B/concat
I1106 20:09:59.029775 19047 net.cpp:434] Transition4B/concat <- Transition4A/conv_Transition4A/relu_0_split_1
I1106 20:09:59.029779 19047 net.cpp:434] Transition4B/concat <- DiverseBlock4f/conv_DiverseBlock4f/relu_0_split_1
I1106 20:09:59.029783 19047 net.cpp:434] Transition4B/concat <- DiverseBlock4g/conv_DiverseBlock4g/relu_0_split_1
I1106 20:09:59.029788 19047 net.cpp:434] Transition4B/concat <- DiverseBlock4h/conv_DiverseBlock4h/relu_0_split_1
I1106 20:09:59.029790 19047 net.cpp:434] Transition4B/concat <- DiverseBlock4i/conv_DiverseBlock4i/relu_0_split_1
I1106 20:09:59.029793 19047 net.cpp:434] Transition4B/concat <- DiverseBlock4j/conv
I1106 20:09:59.029798 19047 net.cpp:408] Transition4B/concat -> Transition4B/concat
I1106 20:09:59.029836 19047 net.cpp:150] Setting up Transition4B/concat
I1106 20:09:59.029842 19047 net.cpp:157] Top shape: 8 1728 20 20 (5529600)
I1106 20:09:59.029844 19047 net.cpp:165] Memory required for data: 2867200288
I1106 20:09:59.029847 19047 layer_factory.hpp:77] Creating layer Transition4B/conv
I1106 20:09:59.029856 19047 net.cpp:100] Creating Layer Transition4B/conv
I1106 20:09:59.029860 19047 net.cpp:434] Transition4B/conv <- Transition4B/concat
I1106 20:09:59.029865 19047 net.cpp:408] Transition4B/conv -> Transition4B/conv
I1106 20:09:59.040940 19047 net.cpp:150] Setting up Transition4B/conv
I1106 20:09:59.040954 19047 net.cpp:157] Top shape: 8 768 20 20 (2457600)
I1106 20:09:59.040958 19047 net.cpp:165] Memory required for data: 2877030688
I1106 20:09:59.040963 19047 layer_factory.hpp:77] Creating layer Transition4B/bn
I1106 20:09:59.040971 19047 net.cpp:100] Creating Layer Transition4B/bn
I1106 20:09:59.040974 19047 net.cpp:434] Transition4B/bn <- Transition4B/conv
I1106 20:09:59.040979 19047 net.cpp:395] Transition4B/bn -> Transition4B/conv (in-place)
I1106 20:09:59.041193 19047 net.cpp:150] Setting up Transition4B/bn
I1106 20:09:59.041201 19047 net.cpp:157] Top shape: 8 768 20 20 (2457600)
I1106 20:09:59.041204 19047 net.cpp:165] Memory required for data: 2886861088
I1106 20:09:59.041211 19047 layer_factory.hpp:77] Creating layer Transition4B/scale
I1106 20:09:59.041218 19047 net.cpp:100] Creating Layer Transition4B/scale
I1106 20:09:59.041221 19047 net.cpp:434] Transition4B/scale <- Transition4B/conv
I1106 20:09:59.041226 19047 net.cpp:395] Transition4B/scale -> Transition4B/conv (in-place)
I1106 20:09:59.041272 19047 layer_factory.hpp:77] Creating layer Transition4B/scale
I1106 20:09:59.041393 19047 net.cpp:150] Setting up Transition4B/scale
I1106 20:09:59.041400 19047 net.cpp:157] Top shape: 8 768 20 20 (2457600)
I1106 20:09:59.041404 19047 net.cpp:165] Memory required for data: 2896691488
I1106 20:09:59.041409 19047 layer_factory.hpp:77] Creating layer Transition4B/relu
I1106 20:09:59.041414 19047 net.cpp:100] Creating Layer Transition4B/relu
I1106 20:09:59.041417 19047 net.cpp:434] Transition4B/relu <- Transition4B/conv
I1106 20:09:59.041422 19047 net.cpp:395] Transition4B/relu -> Transition4B/conv (in-place)
I1106 20:09:59.041836 19047 net.cpp:150] Setting up Transition4B/relu
I1106 20:09:59.041848 19047 net.cpp:157] Top shape: 8 768 20 20 (2457600)
I1106 20:09:59.041852 19047 net.cpp:165] Memory required for data: 2906521888
I1106 20:09:59.041855 19047 layer_factory.hpp:77] Creating layer Transition4B/conv_Transition4B/relu_0_split
I1106 20:09:59.041860 19047 net.cpp:100] Creating Layer Transition4B/conv_Transition4B/relu_0_split
I1106 20:09:59.041863 19047 net.cpp:434] Transition4B/conv_Transition4B/relu_0_split <- Transition4B/conv
I1106 20:09:59.041868 19047 net.cpp:408] Transition4B/conv_Transition4B/relu_0_split -> Transition4B/conv_Transition4B/relu_0_split_0
I1106 20:09:59.041877 19047 net.cpp:408] Transition4B/conv_Transition4B/relu_0_split -> Transition4B/conv_Transition4B/relu_0_split_1
I1106 20:09:59.041882 19047 net.cpp:408] Transition4B/conv_Transition4B/relu_0_split -> Transition4B/conv_Transition4B/relu_0_split_2
I1106 20:09:59.041898 19047 net.cpp:408] Transition4B/conv_Transition4B/relu_0_split -> Transition4B/conv_Transition4B/relu_0_split_3
I1106 20:09:59.041976 19047 net.cpp:150] Setting up Transition4B/conv_Transition4B/relu_0_split
I1106 20:09:59.041985 19047 net.cpp:157] Top shape: 8 768 20 20 (2457600)
I1106 20:09:59.041990 19047 net.cpp:157] Top shape: 8 768 20 20 (2457600)
I1106 20:09:59.041992 19047 net.cpp:157] Top shape: 8 768 20 20 (2457600)
I1106 20:09:59.041996 19047 net.cpp:157] Top shape: 8 768 20 20 (2457600)
I1106 20:09:59.041997 19047 net.cpp:165] Memory required for data: 2945843488
I1106 20:09:59.042001 19047 layer_factory.hpp:77] Creating layer Transition4B/pooling
I1106 20:09:59.042011 19047 net.cpp:100] Creating Layer Transition4B/pooling
I1106 20:09:59.042013 19047 net.cpp:434] Transition4B/pooling <- Transition4B/conv_Transition4B/relu_0_split_0
I1106 20:09:59.042018 19047 net.cpp:408] Transition4B/pooling -> Transition4B/pooling
I1106 20:09:59.042063 19047 net.cpp:150] Setting up Transition4B/pooling
I1106 20:09:59.042074 19047 net.cpp:157] Top shape: 8 768 10 10 (614400)
I1106 20:09:59.042078 19047 net.cpp:165] Memory required for data: 2948301088
I1106 20:09:59.042080 19047 layer_factory.hpp:77] Creating layer Transition4B/pooling_Transition4B/pooling_0_split
I1106 20:09:59.042085 19047 net.cpp:100] Creating Layer Transition4B/pooling_Transition4B/pooling_0_split
I1106 20:09:59.042089 19047 net.cpp:434] Transition4B/pooling_Transition4B/pooling_0_split <- Transition4B/pooling
I1106 20:09:59.042093 19047 net.cpp:408] Transition4B/pooling_Transition4B/pooling_0_split -> Transition4B/pooling_Transition4B/pooling_0_split_0
I1106 20:09:59.042098 19047 net.cpp:408] Transition4B/pooling_Transition4B/pooling_0_split -> Transition4B/pooling_Transition4B/pooling_0_split_1
I1106 20:09:59.042138 19047 net.cpp:150] Setting up Transition4B/pooling_Transition4B/pooling_0_split
I1106 20:09:59.042143 19047 net.cpp:157] Top shape: 8 768 10 10 (614400)
I1106 20:09:59.042146 19047 net.cpp:157] Top shape: 8 768 10 10 (614400)
I1106 20:09:59.042150 19047 net.cpp:165] Memory required for data: 2953216288
I1106 20:09:59.042151 19047 layer_factory.hpp:77] Creating layer DiverseBlock5a/conv
I1106 20:09:59.042160 19047 net.cpp:100] Creating Layer DiverseBlock5a/conv
I1106 20:09:59.042165 19047 net.cpp:434] DiverseBlock5a/conv <- Transition4B/pooling_Transition4B/pooling_0_split_0
I1106 20:09:59.042171 19047 net.cpp:408] DiverseBlock5a/conv -> DiverseBlock5a/conv
I1106 20:09:59.056201 19047 net.cpp:150] Setting up DiverseBlock5a/conv
I1106 20:09:59.056231 19047 net.cpp:157] Top shape: 8 224 10 10 (179200)
I1106 20:09:59.056234 19047 net.cpp:165] Memory required for data: 2953933088
I1106 20:09:59.056241 19047 layer_factory.hpp:77] Creating layer DiverseBlock5a/bn
I1106 20:09:59.056249 19047 net.cpp:100] Creating Layer DiverseBlock5a/bn
I1106 20:09:59.056254 19047 net.cpp:434] DiverseBlock5a/bn <- DiverseBlock5a/conv
I1106 20:09:59.056259 19047 net.cpp:395] DiverseBlock5a/bn -> DiverseBlock5a/conv (in-place)
I1106 20:09:59.056514 19047 net.cpp:150] Setting up DiverseBlock5a/bn
I1106 20:09:59.056522 19047 net.cpp:157] Top shape: 8 224 10 10 (179200)
I1106 20:09:59.056525 19047 net.cpp:165] Memory required for data: 2954649888
I1106 20:09:59.056532 19047 layer_factory.hpp:77] Creating layer DiverseBlock5a/scale
I1106 20:09:59.056538 19047 net.cpp:100] Creating Layer DiverseBlock5a/scale
I1106 20:09:59.056542 19047 net.cpp:434] DiverseBlock5a/scale <- DiverseBlock5a/conv
I1106 20:09:59.056548 19047 net.cpp:395] DiverseBlock5a/scale -> DiverseBlock5a/conv (in-place)
I1106 20:09:59.056601 19047 layer_factory.hpp:77] Creating layer DiverseBlock5a/scale
I1106 20:09:59.056746 19047 net.cpp:150] Setting up DiverseBlock5a/scale
I1106 20:09:59.056754 19047 net.cpp:157] Top shape: 8 224 10 10 (179200)
I1106 20:09:59.056757 19047 net.cpp:165] Memory required for data: 2955366688
I1106 20:09:59.056763 19047 layer_factory.hpp:77] Creating layer DiverseBlock5a/relu
I1106 20:09:59.056782 19047 net.cpp:100] Creating Layer DiverseBlock5a/relu
I1106 20:09:59.056785 19047 net.cpp:434] DiverseBlock5a/relu <- DiverseBlock5a/conv
I1106 20:09:59.056792 19047 net.cpp:395] DiverseBlock5a/relu -> DiverseBlock5a/conv (in-place)
I1106 20:09:59.057384 19047 net.cpp:150] Setting up DiverseBlock5a/relu
I1106 20:09:59.057399 19047 net.cpp:157] Top shape: 8 224 10 10 (179200)
I1106 20:09:59.057401 19047 net.cpp:165] Memory required for data: 2956083488
I1106 20:09:59.057404 19047 layer_factory.hpp:77] Creating layer DiverseBlock5a/conv_DiverseBlock5a/relu_0_split
I1106 20:09:59.057410 19047 net.cpp:100] Creating Layer DiverseBlock5a/conv_DiverseBlock5a/relu_0_split
I1106 20:09:59.057413 19047 net.cpp:434] DiverseBlock5a/conv_DiverseBlock5a/relu_0_split <- DiverseBlock5a/conv
I1106 20:09:59.057420 19047 net.cpp:408] DiverseBlock5a/conv_DiverseBlock5a/relu_0_split -> DiverseBlock5a/conv_DiverseBlock5a/relu_0_split_0
I1106 20:09:59.057426 19047 net.cpp:408] DiverseBlock5a/conv_DiverseBlock5a/relu_0_split -> DiverseBlock5a/conv_DiverseBlock5a/relu_0_split_1
I1106 20:09:59.057479 19047 net.cpp:150] Setting up DiverseBlock5a/conv_DiverseBlock5a/relu_0_split
I1106 20:09:59.057487 19047 net.cpp:157] Top shape: 8 224 10 10 (179200)
I1106 20:09:59.057490 19047 net.cpp:157] Top shape: 8 224 10 10 (179200)
I1106 20:09:59.057492 19047 net.cpp:165] Memory required for data: 2957517088
I1106 20:09:59.057495 19047 layer_factory.hpp:77] Creating layer DiverseBlock5b/conv
I1106 20:09:59.057507 19047 net.cpp:100] Creating Layer DiverseBlock5b/conv
I1106 20:09:59.057514 19047 net.cpp:434] DiverseBlock5b/conv <- DiverseBlock5a/conv_DiverseBlock5a/relu_0_split_0
I1106 20:09:59.057529 19047 net.cpp:408] DiverseBlock5b/conv -> DiverseBlock5b/conv
I1106 20:09:59.062788 19047 net.cpp:150] Setting up DiverseBlock5b/conv
I1106 20:09:59.062803 19047 net.cpp:157] Top shape: 8 224 10 10 (179200)
I1106 20:09:59.062805 19047 net.cpp:165] Memory required for data: 2958233888
I1106 20:09:59.062810 19047 layer_factory.hpp:77] Creating layer DiverseBlock5b/bn
I1106 20:09:59.062819 19047 net.cpp:100] Creating Layer DiverseBlock5b/bn
I1106 20:09:59.062822 19047 net.cpp:434] DiverseBlock5b/bn <- DiverseBlock5b/conv
I1106 20:09:59.062826 19047 net.cpp:395] DiverseBlock5b/bn -> DiverseBlock5b/conv (in-place)
I1106 20:09:59.063058 19047 net.cpp:150] Setting up DiverseBlock5b/bn
I1106 20:09:59.063068 19047 net.cpp:157] Top shape: 8 224 10 10 (179200)
I1106 20:09:59.063071 19047 net.cpp:165] Memory required for data: 2958950688
I1106 20:09:59.063078 19047 layer_factory.hpp:77] Creating layer DiverseBlock5b/scale
I1106 20:09:59.063086 19047 net.cpp:100] Creating Layer DiverseBlock5b/scale
I1106 20:09:59.063089 19047 net.cpp:434] DiverseBlock5b/scale <- DiverseBlock5b/conv
I1106 20:09:59.063093 19047 net.cpp:395] DiverseBlock5b/scale -> DiverseBlock5b/conv (in-place)
I1106 20:09:59.063140 19047 layer_factory.hpp:77] Creating layer DiverseBlock5b/scale
I1106 20:09:59.063272 19047 net.cpp:150] Setting up DiverseBlock5b/scale
I1106 20:09:59.063280 19047 net.cpp:157] Top shape: 8 224 10 10 (179200)
I1106 20:09:59.063283 19047 net.cpp:165] Memory required for data: 2959667488
I1106 20:09:59.063288 19047 layer_factory.hpp:77] Creating layer DiverseBlock5b/relu
I1106 20:09:59.063293 19047 net.cpp:100] Creating Layer DiverseBlock5b/relu
I1106 20:09:59.063297 19047 net.cpp:434] DiverseBlock5b/relu <- DiverseBlock5b/conv
I1106 20:09:59.063302 19047 net.cpp:395] DiverseBlock5b/relu -> DiverseBlock5b/conv (in-place)
I1106 20:09:59.063719 19047 net.cpp:150] Setting up DiverseBlock5b/relu
I1106 20:09:59.063730 19047 net.cpp:157] Top shape: 8 224 10 10 (179200)
I1106 20:09:59.063733 19047 net.cpp:165] Memory required for data: 2960384288
I1106 20:09:59.063736 19047 layer_factory.hpp:77] Creating layer DiverseBlock5b/conv_DiverseBlock5b/relu_0_split
I1106 20:09:59.063745 19047 net.cpp:100] Creating Layer DiverseBlock5b/conv_DiverseBlock5b/relu_0_split
I1106 20:09:59.063748 19047 net.cpp:434] DiverseBlock5b/conv_DiverseBlock5b/relu_0_split <- DiverseBlock5b/conv
I1106 20:09:59.063762 19047 net.cpp:408] DiverseBlock5b/conv_DiverseBlock5b/relu_0_split -> DiverseBlock5b/conv_DiverseBlock5b/relu_0_split_0
I1106 20:09:59.063771 19047 net.cpp:408] DiverseBlock5b/conv_DiverseBlock5b/relu_0_split -> DiverseBlock5b/conv_DiverseBlock5b/relu_0_split_1
I1106 20:09:59.063822 19047 net.cpp:150] Setting up DiverseBlock5b/conv_DiverseBlock5b/relu_0_split
I1106 20:09:59.063830 19047 net.cpp:157] Top shape: 8 224 10 10 (179200)
I1106 20:09:59.063833 19047 net.cpp:157] Top shape: 8 224 10 10 (179200)
I1106 20:09:59.063836 19047 net.cpp:165] Memory required for data: 2961817888
I1106 20:09:59.063839 19047 layer_factory.hpp:77] Creating layer DiverseBlock5c/conv
I1106 20:09:59.063848 19047 net.cpp:100] Creating Layer DiverseBlock5c/conv
I1106 20:09:59.063851 19047 net.cpp:434] DiverseBlock5c/conv <- DiverseBlock5b/conv_DiverseBlock5b/relu_0_split_0
I1106 20:09:59.063858 19047 net.cpp:408] DiverseBlock5c/conv -> DiverseBlock5c/conv
I1106 20:09:59.069087 19047 net.cpp:150] Setting up DiverseBlock5c/conv
I1106 20:09:59.069101 19047 net.cpp:157] Top shape: 8 224 10 10 (179200)
I1106 20:09:59.069105 19047 net.cpp:165] Memory required for data: 2962534688
I1106 20:09:59.069111 19047 layer_factory.hpp:77] Creating layer DiverseBlock5c/bn
I1106 20:09:59.069118 19047 net.cpp:100] Creating Layer DiverseBlock5c/bn
I1106 20:09:59.069123 19047 net.cpp:434] DiverseBlock5c/bn <- DiverseBlock5c/conv
I1106 20:09:59.069128 19047 net.cpp:395] DiverseBlock5c/bn -> DiverseBlock5c/conv (in-place)
I1106 20:09:59.069355 19047 net.cpp:150] Setting up DiverseBlock5c/bn
I1106 20:09:59.069365 19047 net.cpp:157] Top shape: 8 224 10 10 (179200)
I1106 20:09:59.069367 19047 net.cpp:165] Memory required for data: 2963251488
I1106 20:09:59.069375 19047 layer_factory.hpp:77] Creating layer DiverseBlock5c/scale
I1106 20:09:59.069380 19047 net.cpp:100] Creating Layer DiverseBlock5c/scale
I1106 20:09:59.069383 19047 net.cpp:434] DiverseBlock5c/scale <- DiverseBlock5c/conv
I1106 20:09:59.069387 19047 net.cpp:395] DiverseBlock5c/scale -> DiverseBlock5c/conv (in-place)
I1106 20:09:59.069435 19047 layer_factory.hpp:77] Creating layer DiverseBlock5c/scale
I1106 20:09:59.069572 19047 net.cpp:150] Setting up DiverseBlock5c/scale
I1106 20:09:59.069581 19047 net.cpp:157] Top shape: 8 224 10 10 (179200)
I1106 20:09:59.069584 19047 net.cpp:165] Memory required for data: 2963968288
I1106 20:09:59.069589 19047 layer_factory.hpp:77] Creating layer DiverseBlock5c/relu
I1106 20:09:59.069594 19047 net.cpp:100] Creating Layer DiverseBlock5c/relu
I1106 20:09:59.069598 19047 net.cpp:434] DiverseBlock5c/relu <- DiverseBlock5c/conv
I1106 20:09:59.069602 19047 net.cpp:395] DiverseBlock5c/relu -> DiverseBlock5c/conv (in-place)
I1106 20:09:59.071524 19047 net.cpp:150] Setting up DiverseBlock5c/relu
I1106 20:09:59.071539 19047 net.cpp:157] Top shape: 8 224 10 10 (179200)
I1106 20:09:59.071542 19047 net.cpp:165] Memory required for data: 2964685088
I1106 20:09:59.071545 19047 layer_factory.hpp:77] Creating layer DiverseBlock5c/conv_DiverseBlock5c/relu_0_split
I1106 20:09:59.071553 19047 net.cpp:100] Creating Layer DiverseBlock5c/conv_DiverseBlock5c/relu_0_split
I1106 20:09:59.071557 19047 net.cpp:434] DiverseBlock5c/conv_DiverseBlock5c/relu_0_split <- DiverseBlock5c/conv
I1106 20:09:59.071563 19047 net.cpp:408] DiverseBlock5c/conv_DiverseBlock5c/relu_0_split -> DiverseBlock5c/conv_DiverseBlock5c/relu_0_split_0
I1106 20:09:59.071569 19047 net.cpp:408] DiverseBlock5c/conv_DiverseBlock5c/relu_0_split -> DiverseBlock5c/conv_DiverseBlock5c/relu_0_split_1
I1106 20:09:59.071622 19047 net.cpp:150] Setting up DiverseBlock5c/conv_DiverseBlock5c/relu_0_split
I1106 20:09:59.071630 19047 net.cpp:157] Top shape: 8 224 10 10 (179200)
I1106 20:09:59.071632 19047 net.cpp:157] Top shape: 8 224 10 10 (179200)
I1106 20:09:59.071635 19047 net.cpp:165] Memory required for data: 2966118688
I1106 20:09:59.071637 19047 layer_factory.hpp:77] Creating layer DiverseBlock5d/conv
I1106 20:09:59.071647 19047 net.cpp:100] Creating Layer DiverseBlock5d/conv
I1106 20:09:59.071664 19047 net.cpp:434] DiverseBlock5d/conv <- DiverseBlock5c/conv_DiverseBlock5c/relu_0_split_0
I1106 20:09:59.071672 19047 net.cpp:408] DiverseBlock5d/conv -> DiverseBlock5d/conv
I1106 20:09:59.076916 19047 net.cpp:150] Setting up DiverseBlock5d/conv
I1106 20:09:59.076933 19047 net.cpp:157] Top shape: 8 224 10 10 (179200)
I1106 20:09:59.076937 19047 net.cpp:165] Memory required for data: 2966835488
I1106 20:09:59.076942 19047 layer_factory.hpp:77] Creating layer DiverseBlock5d/bn
I1106 20:09:59.076949 19047 net.cpp:100] Creating Layer DiverseBlock5d/bn
I1106 20:09:59.076953 19047 net.cpp:434] DiverseBlock5d/bn <- DiverseBlock5d/conv
I1106 20:09:59.076958 19047 net.cpp:395] DiverseBlock5d/bn -> DiverseBlock5d/conv (in-place)
I1106 20:09:59.077188 19047 net.cpp:150] Setting up DiverseBlock5d/bn
I1106 20:09:59.077198 19047 net.cpp:157] Top shape: 8 224 10 10 (179200)
I1106 20:09:59.077200 19047 net.cpp:165] Memory required for data: 2967552288
I1106 20:09:59.077208 19047 layer_factory.hpp:77] Creating layer DiverseBlock5d/scale
I1106 20:09:59.077214 19047 net.cpp:100] Creating Layer DiverseBlock5d/scale
I1106 20:09:59.077216 19047 net.cpp:434] DiverseBlock5d/scale <- DiverseBlock5d/conv
I1106 20:09:59.077220 19047 net.cpp:395] DiverseBlock5d/scale -> DiverseBlock5d/conv (in-place)
I1106 20:09:59.077270 19047 layer_factory.hpp:77] Creating layer DiverseBlock5d/scale
I1106 20:09:59.077406 19047 net.cpp:150] Setting up DiverseBlock5d/scale
I1106 20:09:59.077415 19047 net.cpp:157] Top shape: 8 224 10 10 (179200)
I1106 20:09:59.077417 19047 net.cpp:165] Memory required for data: 2968269088
I1106 20:09:59.077423 19047 layer_factory.hpp:77] Creating layer DiverseBlock5d/relu
I1106 20:09:59.077428 19047 net.cpp:100] Creating Layer DiverseBlock5d/relu
I1106 20:09:59.077431 19047 net.cpp:434] DiverseBlock5d/relu <- DiverseBlock5d/conv
I1106 20:09:59.077437 19047 net.cpp:395] DiverseBlock5d/relu -> DiverseBlock5d/conv (in-place)
I1106 20:09:59.078019 19047 net.cpp:150] Setting up DiverseBlock5d/relu
I1106 20:09:59.078033 19047 net.cpp:157] Top shape: 8 224 10 10 (179200)
I1106 20:09:59.078037 19047 net.cpp:165] Memory required for data: 2968985888
I1106 20:09:59.078040 19047 layer_factory.hpp:77] Creating layer DiverseBlock5d/conv_DiverseBlock5d/relu_0_split
I1106 20:09:59.078045 19047 net.cpp:100] Creating Layer DiverseBlock5d/conv_DiverseBlock5d/relu_0_split
I1106 20:09:59.078049 19047 net.cpp:434] DiverseBlock5d/conv_DiverseBlock5d/relu_0_split <- DiverseBlock5d/conv
I1106 20:09:59.078055 19047 net.cpp:408] DiverseBlock5d/conv_DiverseBlock5d/relu_0_split -> DiverseBlock5d/conv_DiverseBlock5d/relu_0_split_0
I1106 20:09:59.078063 19047 net.cpp:408] DiverseBlock5d/conv_DiverseBlock5d/relu_0_split -> DiverseBlock5d/conv_DiverseBlock5d/relu_0_split_1
I1106 20:09:59.078117 19047 net.cpp:150] Setting up DiverseBlock5d/conv_DiverseBlock5d/relu_0_split
I1106 20:09:59.078124 19047 net.cpp:157] Top shape: 8 224 10 10 (179200)
I1106 20:09:59.078127 19047 net.cpp:157] Top shape: 8 224 10 10 (179200)
I1106 20:09:59.078130 19047 net.cpp:165] Memory required for data: 2970419488
I1106 20:09:59.078132 19047 layer_factory.hpp:77] Creating layer DiverseBlock5e/conv
I1106 20:09:59.078142 19047 net.cpp:100] Creating Layer DiverseBlock5e/conv
I1106 20:09:59.078146 19047 net.cpp:434] DiverseBlock5e/conv <- DiverseBlock5d/conv_DiverseBlock5d/relu_0_split_0
I1106 20:09:59.078150 19047 net.cpp:408] DiverseBlock5e/conv -> DiverseBlock5e/conv
I1106 20:09:59.083550 19047 net.cpp:150] Setting up DiverseBlock5e/conv
I1106 20:09:59.083566 19047 net.cpp:157] Top shape: 8 224 10 10 (179200)
I1106 20:09:59.083570 19047 net.cpp:165] Memory required for data: 2971136288
I1106 20:09:59.083575 19047 layer_factory.hpp:77] Creating layer DiverseBlock5e/bn
I1106 20:09:59.083583 19047 net.cpp:100] Creating Layer DiverseBlock5e/bn
I1106 20:09:59.083587 19047 net.cpp:434] DiverseBlock5e/bn <- DiverseBlock5e/conv
I1106 20:09:59.083591 19047 net.cpp:395] DiverseBlock5e/bn -> DiverseBlock5e/conv (in-place)
I1106 20:09:59.083829 19047 net.cpp:150] Setting up DiverseBlock5e/bn
I1106 20:09:59.083848 19047 net.cpp:157] Top shape: 8 224 10 10 (179200)
I1106 20:09:59.083853 19047 net.cpp:165] Memory required for data: 2971853088
I1106 20:09:59.083860 19047 layer_factory.hpp:77] Creating layer DiverseBlock5e/scale
I1106 20:09:59.083866 19047 net.cpp:100] Creating Layer DiverseBlock5e/scale
I1106 20:09:59.083869 19047 net.cpp:434] DiverseBlock5e/scale <- DiverseBlock5e/conv
I1106 20:09:59.083873 19047 net.cpp:395] DiverseBlock5e/scale -> DiverseBlock5e/conv (in-place)
I1106 20:09:59.083927 19047 layer_factory.hpp:77] Creating layer DiverseBlock5e/scale
I1106 20:09:59.084069 19047 net.cpp:150] Setting up DiverseBlock5e/scale
I1106 20:09:59.084079 19047 net.cpp:157] Top shape: 8 224 10 10 (179200)
I1106 20:09:59.084080 19047 net.cpp:165] Memory required for data: 2972569888
I1106 20:09:59.084085 19047 layer_factory.hpp:77] Creating layer DiverseBlock5e/relu
I1106 20:09:59.084090 19047 net.cpp:100] Creating Layer DiverseBlock5e/relu
I1106 20:09:59.084095 19047 net.cpp:434] DiverseBlock5e/relu <- DiverseBlock5e/conv
I1106 20:09:59.084100 19047 net.cpp:395] DiverseBlock5e/relu -> DiverseBlock5e/conv (in-place)
I1106 20:09:59.084607 19047 net.cpp:150] Setting up DiverseBlock5e/relu
I1106 20:09:59.084621 19047 net.cpp:157] Top shape: 8 224 10 10 (179200)
I1106 20:09:59.084625 19047 net.cpp:165] Memory required for data: 2973286688
I1106 20:09:59.084627 19047 layer_factory.hpp:77] Creating layer Transition5A/concat
I1106 20:09:59.084635 19047 net.cpp:100] Creating Layer Transition5A/concat
I1106 20:09:59.084640 19047 net.cpp:434] Transition5A/concat <- Transition4B/pooling_Transition4B/pooling_0_split_1
I1106 20:09:59.084643 19047 net.cpp:434] Transition5A/concat <- DiverseBlock5a/conv_DiverseBlock5a/relu_0_split_1
I1106 20:09:59.084647 19047 net.cpp:434] Transition5A/concat <- DiverseBlock5b/conv_DiverseBlock5b/relu_0_split_1
I1106 20:09:59.084651 19047 net.cpp:434] Transition5A/concat <- DiverseBlock5c/conv_DiverseBlock5c/relu_0_split_1
I1106 20:09:59.084655 19047 net.cpp:434] Transition5A/concat <- DiverseBlock5d/conv_DiverseBlock5d/relu_0_split_1
I1106 20:09:59.084657 19047 net.cpp:434] Transition5A/concat <- DiverseBlock5e/conv
I1106 20:09:59.084661 19047 net.cpp:408] Transition5A/concat -> Transition5A/concat
I1106 20:09:59.084700 19047 net.cpp:150] Setting up Transition5A/concat
I1106 20:09:59.084707 19047 net.cpp:157] Top shape: 8 1888 10 10 (1510400)
I1106 20:09:59.084709 19047 net.cpp:165] Memory required for data: 2979328288
I1106 20:09:59.084712 19047 layer_factory.hpp:77] Creating layer Transition5A/conv
I1106 20:09:59.084722 19047 net.cpp:100] Creating Layer Transition5A/conv
I1106 20:09:59.084725 19047 net.cpp:434] Transition5A/conv <- Transition5A/concat
I1106 20:09:59.084731 19047 net.cpp:408] Transition5A/conv -> Transition5A/conv
I1106 20:09:59.103032 19047 net.cpp:150] Setting up Transition5A/conv
I1106 20:09:59.103055 19047 net.cpp:157] Top shape: 8 1024 10 10 (819200)
I1106 20:09:59.103058 19047 net.cpp:165] Memory required for data: 2982605088
I1106 20:09:59.103068 19047 layer_factory.hpp:77] Creating layer Transition5A/bn
I1106 20:09:59.103077 19047 net.cpp:100] Creating Layer Transition5A/bn
I1106 20:09:59.103085 19047 net.cpp:434] Transition5A/bn <- Transition5A/conv
I1106 20:09:59.103090 19047 net.cpp:395] Transition5A/bn -> Transition5A/conv (in-place)
I1106 20:09:59.103368 19047 net.cpp:150] Setting up Transition5A/bn
I1106 20:09:59.103377 19047 net.cpp:157] Top shape: 8 1024 10 10 (819200)
I1106 20:09:59.103379 19047 net.cpp:165] Memory required for data: 2985881888
I1106 20:09:59.103387 19047 layer_factory.hpp:77] Creating layer Transition5A/scale
I1106 20:09:59.103394 19047 net.cpp:100] Creating Layer Transition5A/scale
I1106 20:09:59.103396 19047 net.cpp:434] Transition5A/scale <- Transition5A/conv
I1106 20:09:59.103400 19047 net.cpp:395] Transition5A/scale -> Transition5A/conv (in-place)
I1106 20:09:59.103456 19047 layer_factory.hpp:77] Creating layer Transition5A/scale
I1106 20:09:59.103592 19047 net.cpp:150] Setting up Transition5A/scale
I1106 20:09:59.103601 19047 net.cpp:157] Top shape: 8 1024 10 10 (819200)
I1106 20:09:59.103615 19047 net.cpp:165] Memory required for data: 2989158688
I1106 20:09:59.103621 19047 layer_factory.hpp:77] Creating layer Transition5A/relu
I1106 20:09:59.103626 19047 net.cpp:100] Creating Layer Transition5A/relu
I1106 20:09:59.103631 19047 net.cpp:434] Transition5A/relu <- Transition5A/conv
I1106 20:09:59.103636 19047 net.cpp:395] Transition5A/relu -> Transition5A/conv (in-place)
I1106 20:09:59.104087 19047 net.cpp:150] Setting up Transition5A/relu
I1106 20:09:59.104099 19047 net.cpp:157] Top shape: 8 1024 10 10 (819200)
I1106 20:09:59.104101 19047 net.cpp:165] Memory required for data: 2992435488
I1106 20:09:59.104105 19047 layer_factory.hpp:77] Creating layer Transition5A/conv_Transition5A/relu_0_split
I1106 20:09:59.104111 19047 net.cpp:100] Creating Layer Transition5A/conv_Transition5A/relu_0_split
I1106 20:09:59.104115 19047 net.cpp:434] Transition5A/conv_Transition5A/relu_0_split <- Transition5A/conv
I1106 20:09:59.104126 19047 net.cpp:408] Transition5A/conv_Transition5A/relu_0_split -> Transition5A/conv_Transition5A/relu_0_split_0
I1106 20:09:59.104135 19047 net.cpp:408] Transition5A/conv_Transition5A/relu_0_split -> Transition5A/conv_Transition5A/relu_0_split_1
I1106 20:09:59.104190 19047 net.cpp:150] Setting up Transition5A/conv_Transition5A/relu_0_split
I1106 20:09:59.104197 19047 net.cpp:157] Top shape: 8 1024 10 10 (819200)
I1106 20:09:59.104200 19047 net.cpp:157] Top shape: 8 1024 10 10 (819200)
I1106 20:09:59.104202 19047 net.cpp:165] Memory required for data: 2998989088
I1106 20:09:59.104205 19047 layer_factory.hpp:77] Creating layer DiverseBlock5f/conv
I1106 20:09:59.104215 19047 net.cpp:100] Creating Layer DiverseBlock5f/conv
I1106 20:09:59.104219 19047 net.cpp:434] DiverseBlock5f/conv <- Transition5A/conv_Transition5A/relu_0_split_0
I1106 20:09:59.104228 19047 net.cpp:408] DiverseBlock5f/conv -> DiverseBlock5f/conv
I1106 20:09:59.120882 19047 net.cpp:150] Setting up DiverseBlock5f/conv
I1106 20:09:59.120901 19047 net.cpp:157] Top shape: 8 224 10 10 (179200)
I1106 20:09:59.120904 19047 net.cpp:165] Memory required for data: 2999705888
I1106 20:09:59.120911 19047 layer_factory.hpp:77] Creating layer DiverseBlock5f/bn
I1106 20:09:59.120919 19047 net.cpp:100] Creating Layer DiverseBlock5f/bn
I1106 20:09:59.120923 19047 net.cpp:434] DiverseBlock5f/bn <- DiverseBlock5f/conv
I1106 20:09:59.120929 19047 net.cpp:395] DiverseBlock5f/bn -> DiverseBlock5f/conv (in-place)
I1106 20:09:59.121176 19047 net.cpp:150] Setting up DiverseBlock5f/bn
I1106 20:09:59.121186 19047 net.cpp:157] Top shape: 8 224 10 10 (179200)
I1106 20:09:59.121188 19047 net.cpp:165] Memory required for data: 3000422688
I1106 20:09:59.121194 19047 layer_factory.hpp:77] Creating layer DiverseBlock5f/scale
I1106 20:09:59.121201 19047 net.cpp:100] Creating Layer DiverseBlock5f/scale
I1106 20:09:59.121204 19047 net.cpp:434] DiverseBlock5f/scale <- DiverseBlock5f/conv
I1106 20:09:59.121209 19047 net.cpp:395] DiverseBlock5f/scale -> DiverseBlock5f/conv (in-place)
I1106 20:09:59.121260 19047 layer_factory.hpp:77] Creating layer DiverseBlock5f/scale
I1106 20:09:59.121402 19047 net.cpp:150] Setting up DiverseBlock5f/scale
I1106 20:09:59.121410 19047 net.cpp:157] Top shape: 8 224 10 10 (179200)
I1106 20:09:59.121413 19047 net.cpp:165] Memory required for data: 3001139488
I1106 20:09:59.121419 19047 layer_factory.hpp:77] Creating layer DiverseBlock5f/relu
I1106 20:09:59.121424 19047 net.cpp:100] Creating Layer DiverseBlock5f/relu
I1106 20:09:59.121428 19047 net.cpp:434] DiverseBlock5f/relu <- DiverseBlock5f/conv
I1106 20:09:59.121433 19047 net.cpp:395] DiverseBlock5f/relu -> DiverseBlock5f/conv (in-place)
I1106 20:09:59.121871 19047 net.cpp:150] Setting up DiverseBlock5f/relu
I1106 20:09:59.121882 19047 net.cpp:157] Top shape: 8 224 10 10 (179200)
I1106 20:09:59.121886 19047 net.cpp:165] Memory required for data: 3001856288
I1106 20:09:59.121888 19047 layer_factory.hpp:77] Creating layer DiverseBlock5f/conv_DiverseBlock5f/relu_0_split
I1106 20:09:59.121893 19047 net.cpp:100] Creating Layer DiverseBlock5f/conv_DiverseBlock5f/relu_0_split
I1106 20:09:59.121909 19047 net.cpp:434] DiverseBlock5f/conv_DiverseBlock5f/relu_0_split <- DiverseBlock5f/conv
I1106 20:09:59.121917 19047 net.cpp:408] DiverseBlock5f/conv_DiverseBlock5f/relu_0_split -> DiverseBlock5f/conv_DiverseBlock5f/relu_0_split_0
I1106 20:09:59.121923 19047 net.cpp:408] DiverseBlock5f/conv_DiverseBlock5f/relu_0_split -> DiverseBlock5f/conv_DiverseBlock5f/relu_0_split_1
I1106 20:09:59.121978 19047 net.cpp:150] Setting up DiverseBlock5f/conv_DiverseBlock5f/relu_0_split
I1106 20:09:59.121984 19047 net.cpp:157] Top shape: 8 224 10 10 (179200)
I1106 20:09:59.121986 19047 net.cpp:157] Top shape: 8 224 10 10 (179200)
I1106 20:09:59.121989 19047 net.cpp:165] Memory required for data: 3003289888
I1106 20:09:59.121991 19047 layer_factory.hpp:77] Creating layer DiverseBlock5g/conv
I1106 20:09:59.122004 19047 net.cpp:100] Creating Layer DiverseBlock5g/conv
I1106 20:09:59.122006 19047 net.cpp:434] DiverseBlock5g/conv <- DiverseBlock5f/conv_DiverseBlock5f/relu_0_split_0
I1106 20:09:59.122011 19047 net.cpp:408] DiverseBlock5g/conv -> DiverseBlock5g/conv
I1106 20:09:59.127321 19047 net.cpp:150] Setting up DiverseBlock5g/conv
I1106 20:09:59.127336 19047 net.cpp:157] Top shape: 8 224 10 10 (179200)
I1106 20:09:59.127339 19047 net.cpp:165] Memory required for data: 3004006688
I1106 20:09:59.127346 19047 layer_factory.hpp:77] Creating layer DiverseBlock5g/bn
I1106 20:09:59.127353 19047 net.cpp:100] Creating Layer DiverseBlock5g/bn
I1106 20:09:59.127358 19047 net.cpp:434] DiverseBlock5g/bn <- DiverseBlock5g/conv
I1106 20:09:59.127363 19047 net.cpp:395] DiverseBlock5g/bn -> DiverseBlock5g/conv (in-place)
I1106 20:09:59.127604 19047 net.cpp:150] Setting up DiverseBlock5g/bn
I1106 20:09:59.127614 19047 net.cpp:157] Top shape: 8 224 10 10 (179200)
I1106 20:09:59.127616 19047 net.cpp:165] Memory required for data: 3004723488
I1106 20:09:59.127624 19047 layer_factory.hpp:77] Creating layer DiverseBlock5g/scale
I1106 20:09:59.127630 19047 net.cpp:100] Creating Layer DiverseBlock5g/scale
I1106 20:09:59.127633 19047 net.cpp:434] DiverseBlock5g/scale <- DiverseBlock5g/conv
I1106 20:09:59.127637 19047 net.cpp:395] DiverseBlock5g/scale -> DiverseBlock5g/conv (in-place)
I1106 20:09:59.127687 19047 layer_factory.hpp:77] Creating layer DiverseBlock5g/scale
I1106 20:09:59.127833 19047 net.cpp:150] Setting up DiverseBlock5g/scale
I1106 20:09:59.127842 19047 net.cpp:157] Top shape: 8 224 10 10 (179200)
I1106 20:09:59.127844 19047 net.cpp:165] Memory required for data: 3005440288
I1106 20:09:59.127851 19047 layer_factory.hpp:77] Creating layer DiverseBlock5g/relu
I1106 20:09:59.127856 19047 net.cpp:100] Creating Layer DiverseBlock5g/relu
I1106 20:09:59.127858 19047 net.cpp:434] DiverseBlock5g/relu <- DiverseBlock5g/conv
I1106 20:09:59.127862 19047 net.cpp:395] DiverseBlock5g/relu -> DiverseBlock5g/conv (in-place)
I1106 20:09:59.130069 19047 net.cpp:150] Setting up DiverseBlock5g/relu
I1106 20:09:59.130084 19047 net.cpp:157] Top shape: 8 224 10 10 (179200)
I1106 20:09:59.130087 19047 net.cpp:165] Memory required for data: 3006157088
I1106 20:09:59.130091 19047 layer_factory.hpp:77] Creating layer DiverseBlock5g/conv_DiverseBlock5g/relu_0_split
I1106 20:09:59.130096 19047 net.cpp:100] Creating Layer DiverseBlock5g/conv_DiverseBlock5g/relu_0_split
I1106 20:09:59.130100 19047 net.cpp:434] DiverseBlock5g/conv_DiverseBlock5g/relu_0_split <- DiverseBlock5g/conv
I1106 20:09:59.130107 19047 net.cpp:408] DiverseBlock5g/conv_DiverseBlock5g/relu_0_split -> DiverseBlock5g/conv_DiverseBlock5g/relu_0_split_0
I1106 20:09:59.130113 19047 net.cpp:408] DiverseBlock5g/conv_DiverseBlock5g/relu_0_split -> DiverseBlock5g/conv_DiverseBlock5g/relu_0_split_1
I1106 20:09:59.130168 19047 net.cpp:150] Setting up DiverseBlock5g/conv_DiverseBlock5g/relu_0_split
I1106 20:09:59.130175 19047 net.cpp:157] Top shape: 8 224 10 10 (179200)
I1106 20:09:59.130178 19047 net.cpp:157] Top shape: 8 224 10 10 (179200)
I1106 20:09:59.130182 19047 net.cpp:165] Memory required for data: 3007590688
I1106 20:09:59.130184 19047 layer_factory.hpp:77] Creating layer DiverseBlock5h/conv
I1106 20:09:59.130204 19047 net.cpp:100] Creating Layer DiverseBlock5h/conv
I1106 20:09:59.130209 19047 net.cpp:434] DiverseBlock5h/conv <- DiverseBlock5g/conv_DiverseBlock5g/relu_0_split_0
I1106 20:09:59.130214 19047 net.cpp:408] DiverseBlock5h/conv -> DiverseBlock5h/conv
I1106 20:09:59.135496 19047 net.cpp:150] Setting up DiverseBlock5h/conv
I1106 20:09:59.135512 19047 net.cpp:157] Top shape: 8 224 10 10 (179200)
I1106 20:09:59.135516 19047 net.cpp:165] Memory required for data: 3008307488
I1106 20:09:59.135521 19047 layer_factory.hpp:77] Creating layer DiverseBlock5h/bn
I1106 20:09:59.135529 19047 net.cpp:100] Creating Layer DiverseBlock5h/bn
I1106 20:09:59.135532 19047 net.cpp:434] DiverseBlock5h/bn <- DiverseBlock5h/conv
I1106 20:09:59.135538 19047 net.cpp:395] DiverseBlock5h/bn -> DiverseBlock5h/conv (in-place)
I1106 20:09:59.135782 19047 net.cpp:150] Setting up DiverseBlock5h/bn
I1106 20:09:59.135790 19047 net.cpp:157] Top shape: 8 224 10 10 (179200)
I1106 20:09:59.135793 19047 net.cpp:165] Memory required for data: 3009024288
I1106 20:09:59.135800 19047 layer_factory.hpp:77] Creating layer DiverseBlock5h/scale
I1106 20:09:59.135807 19047 net.cpp:100] Creating Layer DiverseBlock5h/scale
I1106 20:09:59.135810 19047 net.cpp:434] DiverseBlock5h/scale <- DiverseBlock5h/conv
I1106 20:09:59.135814 19047 net.cpp:395] DiverseBlock5h/scale -> DiverseBlock5h/conv (in-place)
I1106 20:09:59.135864 19047 layer_factory.hpp:77] Creating layer DiverseBlock5h/scale
I1106 20:09:59.136018 19047 net.cpp:150] Setting up DiverseBlock5h/scale
I1106 20:09:59.136026 19047 net.cpp:157] Top shape: 8 224 10 10 (179200)
I1106 20:09:59.136029 19047 net.cpp:165] Memory required for data: 3009741088
I1106 20:09:59.136034 19047 layer_factory.hpp:77] Creating layer DiverseBlock5h/relu
I1106 20:09:59.136039 19047 net.cpp:100] Creating Layer DiverseBlock5h/relu
I1106 20:09:59.136044 19047 net.cpp:434] DiverseBlock5h/relu <- DiverseBlock5h/conv
I1106 20:09:59.136049 19047 net.cpp:395] DiverseBlock5h/relu -> DiverseBlock5h/conv (in-place)
I1106 20:09:59.136525 19047 net.cpp:150] Setting up DiverseBlock5h/relu
I1106 20:09:59.136538 19047 net.cpp:157] Top shape: 8 224 10 10 (179200)
…
I1106 20:10:00.605417 19047 net.cpp:165] Memory required for data: 615164064
I1106 20:10:00.605419 19047 layer_factory.hpp:77] Creating layer resP3_inter_mbox_loc_flat
I1106 20:10:00.605424 19047 net.cpp:100] Creating Layer resP3_inter_mbox_loc_flat
I1106 20:10:00.605428 19047 net.cpp:434] resP3_inter_mbox_loc_flat <- resP3_inter_mbox_loc_perm
I1106 20:10:00.605434 19047 net.cpp:408] resP3_inter_mbox_loc_flat -> resP3_inter_mbox_loc_flat
I1106 20:10:00.605476 19047 net.cpp:150] Setting up resP3_inter_mbox_loc_flat
I1106 20:10:00.605484 19047 net.cpp:157] Top shape: 1 19200 (19200)
I1106 20:10:00.605487 19047 net.cpp:165] Memory required for data: 615240864
I1106 20:10:00.605489 19047 layer_factory.hpp:77] Creating layer resP3_inter_mbox_conf
I1106 20:10:00.605499 19047 net.cpp:100] Creating Layer resP3_inter_mbox_conf
I1106 20:10:00.605504 19047 net.cpp:434] resP3_inter_mbox_conf <- resP3_inter_resP3_inter_relu_0_split_1
I1106 20:10:00.605509 19047 net.cpp:408] resP3_inter_mbox_conf -> resP3_inter_mbox_conf
I1106 20:10:00.612326 19047 net.cpp:150] Setting up resP3_inter_mbox_conf
I1106 20:10:00.612354 19047 net.cpp:157] Top shape: 1 63 40 40 (100800)
I1106 20:10:00.612359 19047 net.cpp:165] Memory required for data: 615644064
I1106 20:10:00.612365 19047 layer_factory.hpp:77] Creating layer resP3_inter_mbox_conf_perm
I1106 20:10:00.612370 19047 net.cpp:100] Creating Layer resP3_inter_mbox_conf_perm
I1106 20:10:00.612386 19047 net.cpp:434] resP3_inter_mbox_conf_perm <- resP3_inter_mbox_conf
I1106 20:10:00.612392 19047 net.cpp:408] resP3_inter_mbox_conf_perm -> resP3_inter_mbox_conf_perm
I1106 20:10:00.612594 19047 net.cpp:150] Setting up resP3_inter_mbox_conf_perm
I1106 20:10:00.612604 19047 net.cpp:157] Top shape: 1 40 40 63 (100800)
I1106 20:10:00.612607 19047 net.cpp:165] Memory required for data: 616047264
I1106 20:10:00.612610 19047 layer_factory.hpp:77] Creating layer resP3_inter_mbox_conf_flat
I1106 20:10:00.612617 19047 net.cpp:100] Creating Layer resP3_inter_mbox_conf_flat
I1106 20:10:00.612622 19047 net.cpp:434] resP3_inter_mbox_conf_flat <- resP3_inter_mbox_conf_perm
I1106 20:10:00.612625 19047 net.cpp:408] resP3_inter_mbox_conf_flat -> resP3_inter_mbox_conf_flat
I1106 20:10:00.612670 19047 net.cpp:150] Setting up resP3_inter_mbox_conf_flat
I1106 20:10:00.612685 19047 net.cpp:157] Top shape: 1 100800 (100800)
I1106 20:10:00.612689 19047 net.cpp:165] Memory required for data: 616450464
I1106 20:10:00.612691 19047 layer_factory.hpp:77] Creating layer resP4_inter_branch1
I1106 20:10:00.612699 19047 net.cpp:100] Creating Layer resP4_inter_branch1
I1106 20:10:00.612704 19047 net.cpp:434] resP4_inter_branch1 <- P4_P4_relu_0_split_1
I1106 20:10:00.612710 19047 net.cpp:408] resP4_inter_branch1 -> resP4_inter_branch1
I1106 20:10:00.619289 19047 net.cpp:150] Setting up resP4_inter_branch1
I1106 20:10:00.619305 19047 net.cpp:157] Top shape: 1 1024 20 20 (409600)
I1106 20:10:00.619308 19047 net.cpp:165] Memory required for data: 618088864
I1106 20:10:00.619313 19047 layer_factory.hpp:77] Creating layer bnP4_inter_branch1
I1106 20:10:00.619320 19047 net.cpp:100] Creating Layer bnP4_inter_branch1
I1106 20:10:00.619324 19047 net.cpp:434] bnP4_inter_branch1 <- resP4_inter_branch1
I1106 20:10:00.619329 19047 net.cpp:395] bnP4_inter_branch1 -> resP4_inter_branch1 (in-place)
I1106 20:10:00.619771 19047 net.cpp:150] Setting up bnP4_inter_branch1
I1106 20:10:00.619779 19047 net.cpp:157] Top shape: 1 1024 20 20 (409600)
I1106 20:10:00.619782 19047 net.cpp:165] Memory required for data: 619727264
I1106 20:10:00.619789 19047 layer_factory.hpp:77] Creating layer scaleP4_inter_branch1
I1106 20:10:00.619796 19047 net.cpp:100] Creating Layer scaleP4_inter_branch1
I1106 20:10:00.619801 19047 net.cpp:434] scaleP4_inter_branch1 <- resP4_inter_branch1
I1106 20:10:00.619804 19047 net.cpp:395] scaleP4_inter_branch1 -> resP4_inter_branch1 (in-place)
I1106 20:10:00.619904 19047 layer_factory.hpp:77] Creating layer scaleP4_inter_branch1
I1106 20:10:00.620213 19047 net.cpp:150] Setting up scaleP4_inter_branch1
I1106 20:10:00.620223 19047 net.cpp:157] Top shape: 1 1024 20 20 (409600)
I1106 20:10:00.620224 19047 net.cpp:165] Memory required for data: 621365664
I1106 20:10:00.620229 19047 layer_factory.hpp:77] Creating layer resP4_inter_branch2a
I1106 20:10:00.620240 19047 net.cpp:100] Creating Layer resP4_inter_branch2a
I1106 20:10:00.620244 19047 net.cpp:434] resP4_inter_branch2a <- P4_P4_relu_0_split_2
I1106 20:10:00.620250 19047 net.cpp:408] resP4_inter_branch2a -> resP4_inter_branch2a
I1106 20:10:00.625394 19047 net.cpp:150] Setting up resP4_inter_branch2a
I1106 20:10:00.625411 19047 net.cpp:157] Top shape: 1 256 20 20 (102400)
I1106 20:10:00.625414 19047 net.cpp:165] Memory required for data: 621775264
I1106 20:10:00.625419 19047 layer_factory.hpp:77] Creating layer bnP4_inter_branch2a
I1106 20:10:00.625424 19047 net.cpp:100] Creating Layer bnP4_inter_branch2a
I1106 20:10:00.625429 19047 net.cpp:434] bnP4_inter_branch2a <- resP4_inter_branch2a
I1106 20:10:00.625435 19047 net.cpp:395] bnP4_inter_branch2a -> resP4_inter_branch2a (in-place)
I1106 20:10:00.625830 19047 net.cpp:150] Setting up bnP4_inter_branch2a
I1106 20:10:00.625840 19047 net.cpp:157] Top shape: 1 256 20 20 (102400)
I1106 20:10:00.625844 19047 net.cpp:165] Memory required for data: 622184864
I1106 20:10:00.625849 19047 layer_factory.hpp:77] Creating layer scaleP4_inter_branch2a
I1106 20:10:00.625855 19047 net.cpp:100] Creating Layer scaleP4_inter_branch2a
I1106 20:10:00.625859 19047 net.cpp:434] scaleP4_inter_branch2a <- resP4_inter_branch2a
I1106 20:10:00.625874 19047 net.cpp:395] scaleP4_inter_branch2a -> resP4_inter_branch2a (in-place)
I1106 20:10:00.625949 19047 layer_factory.hpp:77] Creating layer scaleP4_inter_branch2a
I1106 20:10:00.626210 19047 net.cpp:150] Setting up scaleP4_inter_branch2a
I1106 20:10:00.626220 19047 net.cpp:157] Top shape: 1 256 20 20 (102400)
I1106 20:10:00.626222 19047 net.cpp:165] Memory required for data: 622594464
I1106 20:10:00.626229 19047 layer_factory.hpp:77] Creating layer resP4_inter_branch2a_relu
I1106 20:10:00.626235 19047 net.cpp:100] Creating Layer resP4_inter_branch2a_relu
I1106 20:10:00.626238 19047 net.cpp:434] resP4_inter_branch2a_relu <- resP4_inter_branch2a
I1106 20:10:00.626242 19047 net.cpp:395] resP4_inter_branch2a_relu -> resP4_inter_branch2a (in-place)
I1106 20:10:00.626783 19047 net.cpp:150] Setting up resP4_inter_branch2a_relu
I1106 20:10:00.626796 19047 net.cpp:157] Top shape: 1 256 20 20 (102400)
I1106 20:10:00.626798 19047 net.cpp:165] Memory required for data: 623004064
I1106 20:10:00.626801 19047 layer_factory.hpp:77] Creating layer resP4_inter_branch2b
I1106 20:10:00.626811 19047 net.cpp:100] Creating Layer resP4_inter_branch2b
I1106 20:10:00.626814 19047 net.cpp:434] resP4_inter_branch2b <- resP4_inter_branch2a
I1106 20:10:00.626821 19047 net.cpp:408] resP4_inter_branch2b -> resP4_inter_branch2b
I1106 20:10:00.637410 19047 net.cpp:150] Setting up resP4_inter_branch2b
I1106 20:10:00.637426 19047 net.cpp:157] Top shape: 1 256 20 20 (102400)
I1106 20:10:00.637430 19047 net.cpp:165] Memory required for data: 623413664
I1106 20:10:00.637435 19047 layer_factory.hpp:77] Creating layer bnP4_inter_branch2b
I1106 20:10:00.637442 19047 net.cpp:100] Creating Layer bnP4_inter_branch2b
I1106 20:10:00.637447 19047 net.cpp:434] bnP4_inter_branch2b <- resP4_inter_branch2b
I1106 20:10:00.637451 19047 net.cpp:395] bnP4_inter_branch2b -> resP4_inter_branch2b (in-place)
I1106 20:10:00.637850 19047 net.cpp:150] Setting up bnP4_inter_branch2b
I1106 20:10:00.637861 19047 net.cpp:157] Top shape: 1 256 20 20 (102400)
I1106 20:10:00.637863 19047 net.cpp:165] Memory required for data: 623823264
I1106 20:10:00.637869 19047 layer_factory.hpp:77] Creating layer scaleP4_inter_branch2b
I1106 20:10:00.637874 19047 net.cpp:100] Creating Layer scaleP4_inter_branch2b
I1106 20:10:00.637878 19047 net.cpp:434] scaleP4_inter_branch2b <- resP4_inter_branch2b
I1106 20:10:00.637883 19047 net.cpp:395] scaleP4_inter_branch2b -> resP4_inter_branch2b (in-place)
I1106 20:10:00.637953 19047 layer_factory.hpp:77] Creating layer scaleP4_inter_branch2b
I1106 20:10:00.638216 19047 net.cpp:150] Setting up scaleP4_inter_branch2b
I1106 20:10:00.638226 19047 net.cpp:157] Top shape: 1 256 20 20 (102400)
I1106 20:10:00.638228 19047 net.cpp:165] Memory required for data: 624232864
I1106 20:10:00.638234 19047 layer_factory.hpp:77] Creating layer resP4_inter_branch2b_relu
I1106 20:10:00.638239 19047 net.cpp:100] Creating Layer resP4_inter_branch2b_relu
I1106 20:10:00.638243 19047 net.cpp:434] resP4_inter_branch2b_relu <- resP4_inter_branch2b
I1106 20:10:00.638247 19047 net.cpp:395] resP4_inter_branch2b_relu -> resP4_inter_branch2b (in-place)
I1106 20:10:00.639003 19047 net.cpp:150] Setting up resP4_inter_branch2b_relu
I1106 20:10:00.639019 19047 net.cpp:157] Top shape: 1 256 20 20 (102400)
I1106 20:10:00.639022 19047 net.cpp:165] Memory required for data: 624642464
I1106 20:10:00.639026 19047 layer_factory.hpp:77] Creating layer resP4_inter_branch2c
I1106 20:10:00.639035 19047 net.cpp:100] Creating Layer resP4_inter_branch2c
I1106 20:10:00.639039 19047 net.cpp:434] resP4_inter_branch2c <- resP4_inter_branch2b
I1106 20:10:00.639045 19047 net.cpp:408] resP4_inter_branch2c -> resP4_inter_branch2c
I1106 20:10:00.645349 19047 net.cpp:150] Setting up resP4_inter_branch2c
I1106 20:10:00.645364 19047 net.cpp:157] Top shape: 1 1024 20 20 (409600)
I1106 20:10:00.645367 19047 net.cpp:165] Memory required for data: 626280864
I1106 20:10:00.645372 19047 layer_factory.hpp:77] Creating layer bnP4_inter_branch2c
I1106 20:10:00.645391 19047 net.cpp:100] Creating Layer bnP4_inter_branch2c
I1106 20:10:00.645397 19047 net.cpp:434] bnP4_inter_branch2c <- resP4_inter_branch2c
I1106 20:10:00.645401 19047 net.cpp:395] bnP4_inter_branch2c -> resP4_inter_branch2c (in-place)
I1106 20:10:00.645704 19047 net.cpp:150] Setting up bnP4_inter_branch2c
I1106 20:10:00.645712 19047 net.cpp:157] Top shape: 1 1024 20 20 (409600)
I1106 20:10:00.645715 19047 net.cpp:165] Memory required for data: 627919264
I1106 20:10:00.645725 19047 layer_factory.hpp:77] Creating layer scaleP4_inter_branch2c
I1106 20:10:00.645730 19047 net.cpp:100] Creating Layer scaleP4_inter_branch2c
I1106 20:10:00.645733 19047 net.cpp:434] scaleP4_inter_branch2c <- resP4_inter_branch2c
I1106 20:10:00.645736 19047 net.cpp:395] scaleP4_inter_branch2c -> resP4_inter_branch2c (in-place)
I1106 20:10:00.645818 19047 layer_factory.hpp:77] Creating layer scaleP4_inter_branch2c
I1106 20:10:00.646054 19047 net.cpp:150] Setting up scaleP4_inter_branch2c
I1106 20:10:00.646064 19047 net.cpp:157] Top shape: 1 1024 20 20 (409600)
I1106 20:10:00.646065 19047 net.cpp:165] Memory required for data: 629557664
I1106 20:10:00.646071 19047 layer_factory.hpp:77] Creating layer resP4_inter
I1106 20:10:00.646078 19047 net.cpp:100] Creating Layer resP4_inter
I1106 20:10:00.646082 19047 net.cpp:434] resP4_inter <- resP4_inter_branch1
I1106 20:10:00.646086 19047 net.cpp:434] resP4_inter <- resP4_inter_branch2c
I1106 20:10:00.646091 19047 net.cpp:408] resP4_inter -> resP4_inter
I1106 20:10:00.646116 19047 net.cpp:150] Setting up resP4_inter
I1106 20:10:00.646121 19047 net.cpp:157] Top shape: 1 1024 20 20 (409600)
I1106 20:10:00.646123 19047 net.cpp:165] Memory required for data: 631196064
I1106 20:10:00.646126 19047 layer_factory.hpp:77] Creating layer resP4_inter_relu
I1106 20:10:00.646132 19047 net.cpp:100] Creating Layer resP4_inter_relu
I1106 20:10:00.646136 19047 net.cpp:434] resP4_inter_relu <- resP4_inter
I1106 20:10:00.646139 19047 net.cpp:395] resP4_inter_relu -> resP4_inter (in-place)
I1106 20:10:00.646648 19047 net.cpp:150] Setting up resP4_inter_relu
I1106 20:10:00.646661 19047 net.cpp:157] Top shape: 1 1024 20 20 (409600)
I1106 20:10:00.646663 19047 net.cpp:165] Memory required for data: 632834464
I1106 20:10:00.646667 19047 layer_factory.hpp:77] Creating layer resP4_inter_resP4_inter_relu_0_split
I1106 20:10:00.646673 19047 net.cpp:100] Creating Layer resP4_inter_resP4_inter_relu_0_split
I1106 20:10:00.646677 19047 net.cpp:434] resP4_inter_resP4_inter_relu_0_split <- resP4_inter
I1106 20:10:00.646682 19047 net.cpp:408] resP4_inter_resP4_inter_relu_0_split -> resP4_inter_resP4_inter_relu_0_split_0
I1106 20:10:00.646688 19047 net.cpp:408] resP4_inter_resP4_inter_relu_0_split -> resP4_inter_resP4_inter_relu_0_split_1
I1106 20:10:00.646731 19047 net.cpp:150] Setting up resP4_inter_resP4_inter_relu_0_split
I1106 20:10:00.646736 19047 net.cpp:157] Top shape: 1 1024 20 20 (409600)
I1106 20:10:00.646740 19047 net.cpp:157] Top shape: 1 1024 20 20 (409600)
I1106 20:10:00.646742 19047 net.cpp:165] Memory required for data: 636111264
I1106 20:10:00.646744 19047 layer_factory.hpp:77] Creating layer resP4_inter_mbox_loc
I1106 20:10:00.646754 19047 net.cpp:100] Creating Layer resP4_inter_mbox_loc
I1106 20:10:00.646757 19047 net.cpp:434] resP4_inter_mbox_loc <- resP4_inter_resP4_inter_relu_0_split_0
I1106 20:10:00.646764 19047 net.cpp:408] resP4_inter_mbox_loc -> resP4_inter_mbox_loc
I1106 20:10:00.651892 19047 net.cpp:150] Setting up resP4_inter_mbox_loc
I1106 20:10:00.651907 19047 net.cpp:157] Top shape: 1 12 20 20 (4800)
I1106 20:10:00.651911 19047 net.cpp:165] Memory required for data: 636130464
I1106 20:10:00.651999 19047 layer_factory.hpp:77] Creating layer resP4_inter_mbox_loc_perm
I1106 20:10:00.652009 19047 net.cpp:100] Creating Layer resP4_inter_mbox_loc_perm
I1106 20:10:00.652014 19047 net.cpp:434] resP4_inter_mbox_loc_perm <- resP4_inter_mbox_loc
I1106 20:10:00.652019 19047 net.cpp:408] resP4_inter_mbox_loc_perm -> resP4_inter_mbox_loc_perm
I1106 20:10:00.652117 19047 net.cpp:150] Setting up resP4_inter_mbox_loc_perm
I1106 20:10:00.652148 19047 net.cpp:157] Top shape: 1 20 20 12 (4800)
I1106 20:10:00.652153 19047 net.cpp:165] Memory required for data: 636149664
I1106 20:10:00.652155 19047 layer_factory.hpp:77] Creating layer resP4_inter_mbox_loc_flat
I1106 20:10:00.652161 19047 net.cpp:100] Creating Layer resP4_inter_mbox_loc_flat
I1106 20:10:00.652165 19047 net.cpp:434] resP4_inter_mbox_loc_flat <- resP4_inter_mbox_loc_perm
I1106 20:10:00.652173 19047 net.cpp:408] resP4_inter_mbox_loc_flat -> resP4_inter_mbox_loc_flat
I1106 20:10:00.652196 19047 net.cpp:150] Setting up resP4_inter_mbox_loc_flat
I1106 20:10:00.652201 19047 net.cpp:157] Top shape: 1 4800 (4800)
I1106 20:10:00.652204 19047 net.cpp:165] Memory required for data: 636168864
I1106 20:10:00.652206 19047 layer_factory.hpp:77] Creating layer resP4_inter_mbox_conf
I1106 20:10:00.652217 19047 net.cpp:100] Creating Layer resP4_inter_mbox_conf
I1106 20:10:00.652221 19047 net.cpp:434] resP4_inter_mbox_conf <- resP4_inter_resP4_inter_relu_0_split_1
I1106 20:10:00.652226 19047 net.cpp:408] resP4_inter_mbox_conf -> resP4_inter_mbox_conf
I1106 20:10:00.658751 19047 net.cpp:150] Setting up resP4_inter_mbox_conf
I1106 20:10:00.658768 19047 net.cpp:157] Top shape: 1 63 20 20 (25200)
I1106 20:10:00.658772 19047 net.cpp:165] Memory required for data: 636269664
I1106 20:10:00.658778 19047 layer_factory.hpp:77] Creating layer resP4_inter_mbox_conf_perm
I1106 20:10:00.658784 19047 net.cpp:100] Creating Layer resP4_inter_mbox_conf_perm
I1106 20:10:00.658788 19047 net.cpp:434] resP4_inter_mbox_conf_perm <- resP4_inter_mbox_conf
I1106 20:10:00.658795 19047 net.cpp:408] resP4_inter_mbox_conf_perm -> resP4_inter_mbox_conf_perm
I1106 20:10:00.658890 19047 net.cpp:150] Setting up resP4_inter_mbox_conf_perm
I1106 20:10:00.658898 19047 net.cpp:157] Top shape: 1 20 20 63 (25200)
I1106 20:10:00.658901 19047 net.cpp:165] Memory required for data: 636370464
I1106 20:10:00.658905 19047 layer_factory.hpp:77] Creating layer resP4_inter_mbox_conf_flat
I1106 20:10:00.658910 19047 net.cpp:100] Creating Layer resP4_inter_mbox_conf_flat
I1106 20:10:00.658915 19047 net.cpp:434] resP4_inter_mbox_conf_flat <- resP4_inter_mbox_conf_perm
I1106 20:10:00.658919 19047 net.cpp:408] resP4_inter_mbox_conf_flat -> resP4_inter_mbox_conf_flat
I1106 20:10:00.658941 19047 net.cpp:150] Setting up resP4_inter_mbox_conf_flat
I1106 20:10:00.658946 19047 net.cpp:157] Top shape: 1 25200 (25200)
I1106 20:10:00.658949 19047 net.cpp:165] Memory required for data: 636471264
I1106 20:10:00.658951 19047 layer_factory.hpp:77] Creating layer resP5_inter_branch1
I1106 20:10:00.658960 19047 net.cpp:100] Creating Layer resP5_inter_branch1
I1106 20:10:00.658964 19047 net.cpp:434] resP5_inter_branch1 <- P5_P5_relu_0_split_1
I1106 20:10:00.658970 19047 net.cpp:408] resP5_inter_branch1 -> resP5_inter_branch1
I1106 20:10:00.665096 19047 net.cpp:150] Setting up resP5_inter_branch1
I1106 20:10:00.665112 19047 net.cpp:157] Top shape: 1 1024 10 10 (102400)
I1106 20:10:00.665115 19047 net.cpp:165] Memory required for data: 636880864
I1106 20:10:00.665120 19047 layer_factory.hpp:77] Creating layer bnP5_inter_branch1
I1106 20:10:00.665127 19047 net.cpp:100] Creating Layer bnP5_inter_branch1
I1106 20:10:00.665132 19047 net.cpp:434] bnP5_inter_branch1 <- resP5_inter_branch1
I1106 20:10:00.665138 19047 net.cpp:395] bnP5_inter_branch1 -> resP5_inter_branch1 (in-place)
I1106 20:10:00.665408 19047 net.cpp:150] Setting up bnP5_inter_branch1
I1106 20:10:00.665418 19047 net.cpp:157] Top shape: 1 1024 10 10 (102400)
I1106 20:10:00.665421 19047 net.cpp:165] Memory required for data: 637290464
I1106 20:10:00.665427 19047 layer_factory.hpp:77] Creating layer scaleP5_inter_branch1
I1106 20:10:00.665436 19047 net.cpp:100] Creating Layer scaleP5_inter_branch1
I1106 20:10:00.665439 19047 net.cpp:434] scaleP5_inter_branch1 <- resP5_inter_branch1
I1106 20:10:00.665443 19047 net.cpp:395] scaleP5_inter_branch1 -> resP5_inter_branch1 (in-place)
I1106 20:10:00.665521 19047 layer_factory.hpp:77] Creating layer scaleP5_inter_branch1
I1106 20:10:00.665678 19047 net.cpp:150] Setting up scaleP5_inter_branch1
I1106 20:10:00.665697 19047 net.cpp:157] Top shape: 1 1024 10 10 (102400)
I1106 20:10:00.665701 19047 net.cpp:165] Memory required for data: 637700064
I1106 20:10:00.665706 19047 layer_factory.hpp:77] Creating layer resP5_inter_branch2a
I1106 20:10:00.665717 19047 net.cpp:100] Creating Layer resP5_inter_branch2a
I1106 20:10:00.665721 19047 net.cpp:434] resP5_inter_branch2a <- P5_P5_relu_0_split_2
I1106 20:10:00.665727 19047 net.cpp:408] resP5_inter_branch2a -> resP5_inter_branch2a
I1106 20:10:00.671715 19047 net.cpp:150] Setting up resP5_inter_branch2a
I1106 20:10:00.671731 19047 net.cpp:157] Top shape: 1 256 10 10 (25600)
I1106 20:10:00.671734 19047 net.cpp:165] Memory required for data: 637802464
I1106 20:10:00.671739 19047 layer_factory.hpp:77] Creating layer bnP5_inter_branch2a
I1106 20:10:00.671749 19047 net.cpp:100] Creating Layer bnP5_inter_branch2a
I1106 20:10:00.671753 19047 net.cpp:434] bnP5_inter_branch2a <- resP5_inter_branch2a
I1106 20:10:00.671758 19047 net.cpp:395] bnP5_inter_branch2a -> resP5_inter_branch2a (in-place)
I1106 20:10:00.671931 19047 net.cpp:150] Setting up bnP5_inter_branch2a
I1106 20:10:00.671939 19047 net.cpp:157] Top shape: 1 256 10 10 (25600)
I1106 20:10:00.671942 19047 net.cpp:165] Memory required for data: 637904864
I1106 20:10:00.671948 19047 layer_factory.hpp:77] Creating layer scaleP5_inter_branch2a
I1106 20:10:00.671955 19047 net.cpp:100] Creating Layer scaleP5_inter_branch2a
I1106 20:10:00.671959 19047 net.cpp:434] scaleP5_inter_branch2a <- resP5_inter_branch2a
I1106 20:10:00.671963 19047 net.cpp:395] scaleP5_inter_branch2a -> resP5_inter_branch2a (in-place)
I1106 20:10:00.671999 19047 layer_factory.hpp:77] Creating layer scaleP5_inter_branch2a
I1106 20:10:00.672102 19047 net.cpp:150] Setting up scaleP5_inter_branch2a
I1106 20:10:00.672111 19047 net.cpp:157] Top shape: 1 256 10 10 (25600)
I1106 20:10:00.672114 19047 net.cpp:165] Memory required for data: 638007264
I1106 20:10:00.672142 19047 layer_factory.hpp:77] Creating layer resP5_inter_branch2a_relu
I1106 20:10:00.672150 19047 net.cpp:100] Creating Layer resP5_inter_branch2a_relu
I1106 20:10:00.672154 19047 net.cpp:434] resP5_inter_branch2a_relu <- resP5_inter_branch2a
I1106 20:10:00.672158 19047 net.cpp:395] resP5_inter_branch2a_relu -> resP5_inter_branch2a (in-place)
I1106 20:10:00.672927 19047 net.cpp:150] Setting up resP5_inter_branch2a_relu
I1106 20:10:00.672941 19047 net.cpp:157] Top shape: 1 256 10 10 (25600)
I1106 20:10:00.672945 19047 net.cpp:165] Memory required for data: 638109664
I1106 20:10:00.672947 19047 layer_factory.hpp:77] Creating layer resP5_inter_branch2b
I1106 20:10:00.672957 19047 net.cpp:100] Creating Layer resP5_inter_branch2b
I1106 20:10:00.672962 19047 net.cpp:434] resP5_inter_branch2b <- resP5_inter_branch2a
I1106 20:10:00.672968 19047 net.cpp:408] resP5_inter_branch2b -> resP5_inter_branch2b
I1106 20:10:00.683341 19047 net.cpp:150] Setting up resP5_inter_branch2b
I1106 20:10:00.683356 19047 net.cpp:157] Top shape: 1 256 10 10 (25600)
I1106 20:10:00.683359 19047 net.cpp:165] Memory required for data: 638212064
I1106 20:10:00.683365 19047 layer_factory.hpp:77] Creating layer bnP5_inter_branch2b
I1106 20:10:00.683372 19047 net.cpp:100] Creating Layer bnP5_inter_branch2b
I1106 20:10:00.683377 19047 net.cpp:434] bnP5_inter_branch2b <- resP5_inter_branch2b
I1106 20:10:00.683382 19047 net.cpp:395] bnP5_inter_branch2b -> resP5_inter_branch2b (in-place)
I1106 20:10:00.683557 19047 net.cpp:150] Setting up bnP5_inter_branch2b
I1106 20:10:00.683567 19047 net.cpp:157] Top shape: 1 256 10 10 (25600)
I1106 20:10:00.683569 19047 net.cpp:165] Memory required for data: 638314464
I1106 20:10:00.683576 19047 layer_factory.hpp:77] Creating layer scaleP5_inter_branch2b
I1106 20:10:00.683581 19047 net.cpp:100] Creating Layer scaleP5_inter_branch2b
I1106 20:10:00.683584 19047 net.cpp:434] scaleP5_inter_branch2b <- resP5_inter_branch2b
I1106 20:10:00.683588 19047 net.cpp:395] scaleP5_inter_branch2b -> resP5_inter_branch2b (in-place)
I1106 20:10:00.683626 19047 layer_factory.hpp:77] Creating layer scaleP5_inter_branch2b
I1106 20:10:00.683748 19047 net.cpp:150] Setting up scaleP5_inter_branch2b
I1106 20:10:00.683758 19047 net.cpp:157] Top shape: 1 256 10 10 (25600)
I1106 20:10:00.683759 19047 net.cpp:165] Memory required for data: 638416864
I1106 20:10:00.683764 19047 layer_factory.hpp:77] Creating layer resP5_inter_branch2b_relu
I1106 20:10:00.683769 19047 net.cpp:100] Creating Layer resP5_inter_branch2b_relu
I1106 20:10:00.683773 19047 net.cpp:434] resP5_inter_branch2b_relu <- resP5_inter_branch2b
I1106 20:10:00.683779 19047 net.cpp:395] resP5_inter_branch2b_relu -> resP5_inter_branch2b (in-place)
I1106 20:10:00.684305 19047 net.cpp:150] Setting up resP5_inter_branch2b_relu
I1106 20:10:00.684317 19047 net.cpp:157] Top shape: 1 256 10 10 (25600)
I1106 20:10:00.684320 19047 net.cpp:165] Memory required for data: 638519264
I1106 20:10:00.684324 19047 layer_factory.hpp:77] Creating layer resP5_inter_branch2c
I1106 20:10:00.684334 19047 net.cpp:100] Creating Layer resP5_inter_branch2c
I1106 20:10:00.684340 19047 net.cpp:434] resP5_inter_branch2c <- resP5_inter_branch2b
I1106 20:10:00.684345 19047 net.cpp:408] resP5_inter_branch2c -> resP5_inter_branch2c
I1106 20:10:00.689481 19047 net.cpp:150] Setting up resP5_inter_branch2c
I1106 20:10:00.689496 19047 net.cpp:157] Top shape: 1 1024 10 10 (102400)
I1106 20:10:00.689498 19047 net.cpp:165] Memory required for data: 638928864
I1106 20:10:00.689503 19047 layer_factory.hpp:77] Creating layer bnP5_inter_branch2c
I1106 20:10:00.689510 19047 net.cpp:100] Creating Layer bnP5_inter_branch2c
I1106 20:10:00.689514 19047 net.cpp:434] bnP5_inter_branch2c <- resP5_inter_branch2c
I1106 20:10:00.689519 19047 net.cpp:395] bnP5_inter_branch2c -> resP5_inter_branch2c (in-place)
I1106 20:10:00.689780 19047 net.cpp:150] Setting up bnP5_inter_branch2c
I1106 20:10:00.689790 19047 net.cpp:157] Top shape: 1 1024 10 10 (102400)
I1106 20:10:00.689793 19047 net.cpp:165] Memory required for data: 639338464
I1106 20:10:00.689801 19047 layer_factory.hpp:77] Creating layer scaleP5_inter_branch2c
I1106 20:10:00.689806 19047 net.cpp:100] Creating Layer scaleP5_inter_branch2c
I1106 20:10:00.689810 19047 net.cpp:434] scaleP5_inter_branch2c <- resP5_inter_branch2c
I1106 20:10:00.689813 19047 net.cpp:395] scaleP5_inter_branch2c -> resP5_inter_branch2c (in-place)
I1106 20:10:00.689891 19047 layer_factory.hpp:77] Creating layer scaleP5_inter_branch2c
I1106 20:10:00.690053 19047 net.cpp:150] Setting up scaleP5_inter_branch2c
I1106 20:10:00.690062 19047 net.cpp:157] Top shape: 1 1024 10 10 (102400)
I1106 20:10:00.690065 19047 net.cpp:165] Memory required for data: 639748064
I1106 20:10:00.690070 19047 layer_factory.hpp:77] Creating layer resP5_inter
I1106 20:10:00.690078 19047 net.cpp:100] Creating Layer resP5_inter
I1106 20:10:00.690081 19047 net.cpp:434] resP5_inter <- resP5_inter_branch1
I1106 20:10:00.690085 19047 net.cpp:434] resP5_inter <- resP5_inter_branch2c
I1106 20:10:00.690090 19047 net.cpp:408] resP5_inter -> resP5_inter
I1106 20:10:00.690112 19047 net.cpp:150] Setting up resP5_inter
I1106 20:10:00.690117 19047 net.cpp:157] Top shape: 1 1024 10 10 (102400)
I1106 20:10:00.690119 19047 net.cpp:165] Memory required for data: 640157664
I1106 20:10:00.690122 19047 layer_factory.hpp:77] Creating layer resP5_inter_relu
I1106 20:10:00.690129 19047 net.cpp:100] Creating Layer resP5_inter_relu
I1106 20:10:00.690131 19047 net.cpp:434] resP5_inter_relu <- resP5_inter
I1106 20:10:00.690135 19047 net.cpp:395] resP5_inter_relu -> resP5_inter (in-place)
I1106 20:10:00.692807 19047 net.cpp:150] Setting up resP5_inter_relu
I1106 20:10:00.692823 19047 net.cpp:157] Top shape: 1 1024 10 10 (102400)
I1106 20:10:00.692827 19047 net.cpp:165] Memory required for data: 640567264
I1106 20:10:00.692831 19047 layer_factory.hpp:77] Creating layer resP5_inter_resP5_inter_relu_0_split
I1106 20:10:00.692836 19047 net.cpp:100] Creating Layer resP5_inter_resP5_inter_relu_0_split
I1106 20:10:00.692840 19047 net.cpp:434] resP5_inter_resP5_inter_relu_0_split <- resP5_inter
I1106 20:10:00.692845 19047 net.cpp:408] resP5_inter_resP5_inter_relu_0_split -> resP5_inter_resP5_inter_relu_0_split_0
I1106 20:10:00.692863 19047 net.cpp:408] resP5_inter_resP5_inter_relu_0_split -> resP5_inter_resP5_inter_relu_0_split_1
I1106 20:10:00.692911 19047 net.cpp:150] Setting up resP5_inter_resP5_inter_relu_0_split
I1106 20:10:00.692917 19047 net.cpp:157] Top shape: 1 1024 10 10 (102400)
I1106 20:10:00.692920 19047 net.cpp:157] Top shape: 1 1024 10 10 (102400)
I1106 20:10:00.692924 19047 net.cpp:165] Memory required for data: 641386464
I1106 20:10:00.692925 19047 layer_factory.hpp:77] Creating layer resP5_inter_mbox_loc
I1106 20:10:00.692939 19047 net.cpp:100] Creating Layer resP5_inter_mbox_loc
I1106 20:10:00.692943 19047 net.cpp:434] resP5_inter_mbox_loc <- resP5_inter_resP5_inter_relu_0_split_0
I1106 20:10:00.692948 19047 net.cpp:408] resP5_inter_mbox_loc -> resP5_inter_mbox_loc
I1106 20:10:00.695837 19047 net.cpp:150] Setting up resP5_inter_mbox_loc
I1106 20:10:00.695852 19047 net.cpp:157] Top shape: 1 12 10 10 (1200)
I1106 20:10:00.695854 19047 net.cpp:165] Memory required for data: 641391264
I1106 20:10:00.695863 19047 layer_factory.hpp:77] Creating layer resP5_inter_mbox_loc_perm
I1106 20:10:00.695869 19047 net.cpp:100] Creating Layer resP5_inter_mbox_loc_perm
I1106 20:10:00.695873 19047 net.cpp:434] resP5_inter_mbox_loc_perm <- resP5_inter_mbox_loc
I1106 20:10:00.695878 19047 net.cpp:408] resP5_inter_mbox_loc_perm -> resP5_inter_mbox_loc_perm
I1106 20:10:00.695976 19047 net.cpp:150] Setting up resP5_inter_mbox_loc_perm
I1106 20:10:00.695986 19047 net.cpp:157] Top shape: 1 10 10 12 (1200)
I1106 20:10:00.695987 19047 net.cpp:165] Memory required for data: 641396064
I1106 20:10:00.695991 19047 layer_factory.hpp:77] Creating layer resP5_inter_mbox_loc_flat
I1106 20:10:00.695996 19047 net.cpp:100] Creating Layer resP5_inter_mbox_loc_flat
I1106 20:10:00.695999 19047 net.cpp:434] resP5_inter_mbox_loc_flat <- resP5_inter_mbox_loc_perm
I1106 20:10:00.696005 19047 net.cpp:408] resP5_inter_mbox_loc_flat -> resP5_inter_mbox_loc_flat
I1106 20:10:00.696028 19047 net.cpp:150] Setting up resP5_inter_mbox_loc_flat
I1106 20:10:00.696034 19047 net.cpp:157] Top shape: 1 1200 (1200)
I1106 20:10:00.696036 19047 net.cpp:165] Memory required for data: 641400864
I1106 20:10:00.696038 19047 layer_factory.hpp:77] Creating layer resP5_inter_mbox_conf
I1106 20:10:00.696048 19047 net.cpp:100] Creating Layer resP5_inter_mbox_conf
I1106 20:10:00.696051 19047 net.cpp:434] resP5_inter_mbox_conf <- resP5_inter_resP5_inter_relu_0_split_1
I1106 20:10:00.696058 19047 net.cpp:408] resP5_inter_mbox_conf -> resP5_inter_mbox_conf
I1106 20:10:00.702620 19047 net.cpp:150] Setting up resP5_inter_mbox_conf
I1106 20:10:00.702636 19047 net.cpp:157] Top shape: 1 63 10 10 (6300)
I1106 20:10:00.702639 19047 net.cpp:165] Memory required for data: 641426064
I1106 20:10:00.702646 19047 layer_factory.hpp:77] Creating layer resP5_inter_mbox_conf_perm
I1106 20:10:00.702653 19047 net.cpp:100] Creating Layer resP5_inter_mbox_conf_perm
I1106 20:10:00.702657 19047 net.cpp:434] resP5_inter_mbox_conf_perm <- resP5_inter_mbox_conf
I1106 20:10:00.702664 19047 net.cpp:408] resP5_inter_mbox_conf_perm -> resP5_inter_mbox_conf_perm
I1106 20:10:00.702764 19047 net.cpp:150] Setting up resP5_inter_mbox_conf_perm
I1106 20:10:00.702774 19047 net.cpp:157] Top shape: 1 10 10 63 (6300)
I1106 20:10:00.702776 19047 net.cpp:165] Memory required for data: 641451264
I1106 20:10:00.702780 19047 layer_factory.hpp:77] Creating layer resP5_inter_mbox_conf_flat
I1106 20:10:00.702785 19047 net.cpp:100] Creating Layer resP5_inter_mbox_conf_flat
I1106 20:10:00.702787 19047 net.cpp:434] resP5_inter_mbox_conf_flat <- resP5_inter_mbox_conf_perm
I1106 20:10:00.702792 19047 net.cpp:408] resP5_inter_mbox_conf_flat -> resP5_inter_mbox_conf_flat
I1106 20:10:00.702816 19047 net.cpp:150] Setting up resP5_inter_mbox_conf_flat
I1106 20:10:00.702821 19047 net.cpp:157] Top shape: 1 6300 (6300)
I1106 20:10:00.702823 19047 net.cpp:165] Memory required for data: 641476464
I1106 20:10:00.702826 19047 layer_factory.hpp:77] Creating layer resP6_inter_branch1
I1106 20:10:00.702844 19047 net.cpp:100] Creating Layer resP6_inter_branch1
I1106 20:10:00.702850 19047 net.cpp:434] resP6_inter_branch1 <- P6_P6_relu_0_split_1
I1106 20:10:00.702857 19047 net.cpp:408] resP6_inter_branch1 -> resP6_inter_branch1
I1106 20:10:00.709036 19047 net.cpp:150] Setting up resP6_inter_branch1
I1106 20:10:00.709053 19047 net.cpp:157] Top shape: 1 1024 5 5 (25600)
I1106 20:10:00.709055 19047 net.cpp:165] Memory required for data: 641578864
I1106 20:10:00.709060 19047 layer_factory.hpp:77] Creating layer bnP6_inter_branch1
I1106 20:10:00.709067 19047 net.cpp:100] Creating Layer bnP6_inter_branch1
I1106 20:10:00.709071 19047 net.cpp:434] bnP6_inter_branch1 <- resP6_inter_branch1
I1106 20:10:00.709076 19047 net.cpp:395] bnP6_inter_branch1 -> resP6_inter_branch1 (in-place)
I1106 20:10:00.709347 19047 net.cpp:150] Setting up bnP6_inter_branch1
I1106 20:10:00.709357 19047 net.cpp:157] Top shape: 1 1024 5 5 (25600)
I1106 20:10:00.709360 19047 net.cpp:165] Memory required for data: 641681264
I1106 20:10:00.709372 19047 layer_factory.hpp:77] Creating layer scaleP6_inter_branch1
I1106 20:10:00.709378 19047 net.cpp:100] Creating Layer scaleP6_inter_branch1
I1106 20:10:00.709380 19047 net.cpp:434] scaleP6_inter_branch1 <- resP6_inter_branch1
I1106 20:10:00.709384 19047 net.cpp:395] scaleP6_inter_branch1 -> resP6_inter_branch1 (in-place)
I1106 20:10:00.709465 19047 layer_factory.hpp:77] Creating layer scaleP6_inter_branch1
I1106 20:10:00.709623 19047 net.cpp:150] Setting up scaleP6_inter_branch1
I1106 20:10:00.709633 19047 net.cpp:157] Top shape: 1 1024 5 5 (25600)
I1106 20:10:00.709636 19047 net.cpp:165] Memory required for data: 641783664
I1106 20:10:00.709641 19047 layer_factory.hpp:77] Creating layer resP6_inter_branch2a
I1106 20:10:00.709651 19047 net.cpp:100] Creating Layer resP6_inter_branch2a
I1106 20:10:00.709656 19047 net.cpp:434] resP6_inter_branch2a <- P6_P6_relu_0_split_2
I1106 20:10:00.709661 19047 net.cpp:408] resP6_inter_branch2a -> resP6_inter_branch2a
I1106 20:10:00.714613 19047 net.cpp:150] Setting up resP6_inter_branch2a
I1106 20:10:00.714628 19047 net.cpp:157] Top shape: 1 256 5 5 (6400)
I1106 20:10:00.714632 19047 net.cpp:165] Memory required for data: 641809264
I1106 20:10:00.714637 19047 layer_factory.hpp:77] Creating layer bnP6_inter_branch2a
I1106 20:10:00.714643 19047 net.cpp:100] Creating Layer bnP6_inter_branch2a
I1106 20:10:00.714646 19047 net.cpp:434] bnP6_inter_branch2a <- resP6_inter_branch2a
I1106 20:10:00.714653 19047 net.cpp:395] bnP6_inter_branch2a -> resP6_inter_branch2a (in-place)
I1106 20:10:00.714830 19047 net.cpp:150] Setting up bnP6_inter_branch2a
I1106 20:10:00.714839 19047 net.cpp:157] Top shape: 1 256 5 5 (6400)
I1106 20:10:00.714843 19047 net.cpp:165] Memory required for data: 641834864
I1106 20:10:00.714848 19047 layer_factory.hpp:77] Creating layer scaleP6_inter_branch2a
I1106 20:10:00.714854 19047 net.cpp:100] Creating Layer scaleP6_inter_branch2a
I1106 20:10:00.714857 19047 net.cpp:434] scaleP6_inter_branch2a <- resP6_inter_branch2a
I1106 20:10:00.714862 19047 net.cpp:395] scaleP6_inter_branch2a -> resP6_inter_branch2a (in-place)
I1106 20:10:00.714900 19047 layer_factory.hpp:77] Creating layer scaleP6_inter_branch2a
I1106 20:10:00.714996 19047 net.cpp:150] Setting up scaleP6_inter_branch2a
I1106 20:10:00.715006 19047 net.cpp:157] Top shape: 1 256 5 5 (6400)
I1106 20:10:00.715009 19047 net.cpp:165] Memory required for data: 641860464
I1106 20:10:00.715014 19047 layer_factory.hpp:77] Creating layer resP6_inter_branch2a_relu
I1106 20:10:00.715018 19047 net.cpp:100] Creating Layer resP6_inter_branch2a_relu
I1106 20:10:00.715023 19047 net.cpp:434] resP6_inter_branch2a_relu <- resP6_inter_branch2a
I1106 20:10:00.715025 19047 net.cpp:395] resP6_inter_branch2a_relu -> resP6_inter_branch2a (in-place)
I1106 20:10:00.715549 19047 net.cpp:150] Setting up resP6_inter_branch2a_relu
I1106 20:10:00.715560 19047 net.cpp:157] Top shape: 1 256 5 5 (6400)
I1106 20:10:00.715564 19047 net.cpp:165] Memory required for data: 641886064
I1106 20:10:00.715566 19047 layer_factory.hpp:77] Creating layer resP6_inter_branch2b
I1106 20:10:00.715587 19047 net.cpp:100] Creating Layer resP6_inter_branch2b
I1106 20:10:00.715593 19047 net.cpp:434] resP6_inter_branch2b <- resP6_inter_branch2a
I1106 20:10:00.715598 19047 net.cpp:408] resP6_inter_branch2b -> resP6_inter_branch2b
I1106 20:10:00.726033 19047 net.cpp:150] Setting up resP6_inter_branch2b
I1106 20:10:00.726049 19047 net.cpp:157] Top shape: 1 256 5 5 (6400)
I1106 20:10:00.726053 19047 net.cpp:165] Memory required for data: 641911664
I1106 20:10:00.726058 19047 layer_factory.hpp:77] Creating layer bnP6_inter_branch2b
I1106 20:10:00.726063 19047 net.cpp:100] Creating Layer bnP6_inter_branch2b
I1106 20:10:00.726068 19047 net.cpp:434] bnP6_inter_branch2b <- resP6_inter_branch2b
I1106 20:10:00.726074 19047 net.cpp:395] bnP6_inter_branch2b -> resP6_inter_branch2b (in-place)
I1106 20:10:00.726258 19047 net.cpp:150] Setting up bnP6_inter_branch2b
I1106 20:10:00.726266 19047 net.cpp:157] Top shape: 1 256 5 5 (6400)
I1106 20:10:00.726269 19047 net.cpp:165] Memory required for data: 641937264
I1106 20:10:00.726275 19047 layer_factory.hpp:77] Creating layer scaleP6_inter_branch2b
I1106 20:10:00.726280 19047 net.cpp:100] Creating Layer scaleP6_inter_branch2b
I1106 20:10:00.726284 19047 net.cpp:434] scaleP6_inter_branch2b <- resP6_inter_branch2b
I1106 20:10:00.726289 19047 net.cpp:395] scaleP6_inter_branch2b -> resP6_inter_branch2b (in-place)
I1106 20:10:00.726328 19047 layer_factory.hpp:77] Creating layer scaleP6_inter_branch2b
I1106 20:10:00.726429 19047 net.cpp:150] Setting up scaleP6_inter_branch2b
I1106 20:10:00.726439 19047 net.cpp:157] Top shape: 1 256 5 5 (6400)
I1106 20:10:00.726441 19047 net.cpp:165] Memory required for data: 641962864
I1106 20:10:00.726447 19047 layer_factory.hpp:77] Creating layer resP6_inter_branch2b_relu
I1106 20:10:00.726452 19047 net.cpp:100] Creating Layer resP6_inter_branch2b_relu
I1106 20:10:00.726455 19047 net.cpp:434] resP6_inter_branch2b_relu <- resP6_inter_branch2b
I1106 20:10:00.726459 19047 net.cpp:395] resP6_inter_branch2b_relu -> resP6_inter_branch2b (in-place)
I1106 20:10:00.727218 19047 net.cpp:150] Setting up resP6_inter_branch2b_relu
I1106 20:10:00.727232 19047 net.cpp:157] Top shape: 1 256 5 5 (6400)
I1106 20:10:00.727236 19047 net.cpp:165] Memory required for data: 641988464
I1106 20:10:00.727239 19047 layer_factory.hpp:77] Creating layer resP6_inter_branch2c
I1106 20:10:00.727248 19047 net.cpp:100] Creating Layer resP6_inter_branch2c
I1106 20:10:00.727252 19047 net.cpp:434] resP6_inter_branch2c <- resP6_inter_branch2b
I1106 20:10:00.727259 19047 net.cpp:408] resP6_inter_branch2c -> resP6_inter_branch2c
I1106 20:10:00.734346 19047 net.cpp:150] Setting up resP6_inter_branch2c
I1106 20:10:00.734361 19047 net.cpp:157] Top shape: 1 1024 5 5 (25600)
I1106 20:10:00.734365 19047 net.cpp:165] Memory required for data: 642090864
I1106 20:10:00.734370 19047 layer_factory.hpp:77] Creating layer bnP6_inter_branch2c
I1106 20:10:00.734377 19047 net.cpp:100] Creating Layer bnP6_inter_branch2c
I1106 20:10:00.734381 19047 net.cpp:434] bnP6_inter_branch2c <- resP6_inter_branch2c
I1106 20:10:00.734386 19047 net.cpp:395] bnP6_inter_branch2c -> resP6_inter_branch2c (in-place)
I1106 20:10:00.734664 19047 net.cpp:150] Setting up bnP6_inter_branch2c
I1106 20:10:00.734674 19047 net.cpp:157] Top shape: 1 1024 5 5 (25600)
I1106 20:10:00.734678 19047 net.cpp:165] Memory required for data: 642193264
I1106 20:10:00.734684 19047 layer_factory.hpp:77] Creating layer scaleP6_inter_branch2c
I1106 20:10:00.734689 19047 net.cpp:100] Creating Layer scaleP6_inter_branch2c
I1106 20:10:00.734694 19047 net.cpp:434] scaleP6_inter_branch2c <- resP6_inter_branch2c
I1106 20:10:00.734697 19047 net.cpp:395] scaleP6_inter_branch2c -> resP6_inter_branch2c (in-place)
I1106 20:10:00.734777 19047 layer_factory.hpp:77] Creating layer scaleP6_inter_branch2c
I1106 20:10:00.734946 19047 net.cpp:150] Setting up scaleP6_inter_branch2c
I1106 20:10:00.734956 19047 net.cpp:157] Top shape: 1 1024 5 5 (25600)
I1106 20:10:00.734957 19047 net.cpp:165] Memory required for data: 642295664
I1106 20:10:00.734974 19047 layer_factory.hpp:77] Creating layer resP6_inter
I1106 20:10:00.734980 19047 net.cpp:100] Creating Layer resP6_inter
I1106 20:10:00.734984 19047 net.cpp:434] resP6_inter <- resP6_inter_branch1
I1106 20:10:00.734987 19047 net.cpp:434] resP6_inter <- resP6_inter_branch2c
I1106 20:10:00.734993 19047 net.cpp:408] resP6_inter -> resP6_inter
I1106 20:10:00.735020 19047 net.cpp:150] Setting up resP6_inter
I1106 20:10:00.735025 19047 net.cpp:157] Top shape: 1 1024 5 5 (25600)
I1106 20:10:00.735028 19047 net.cpp:165] Memory required for data: 642398064
I1106 20:10:00.735030 19047 layer_factory.hpp:77] Creating layer resP6_inter_relu
I1106 20:10:00.735036 19047 net.cpp:100] Creating Layer resP6_inter_relu
I1106 20:10:00.735040 19047 net.cpp:434] resP6_inter_relu <- resP6_inter
I1106 20:10:00.735044 19047 net.cpp:395] resP6_inter_relu -> resP6_inter (in-place)
I1106 20:10:00.735571 19047 net.cpp:150] Setting up resP6_inter_relu
I1106 20:10:00.735584 19047 net.cpp:157] Top shape: 1 1024 5 5 (25600)
I1106 20:10:00.735586 19047 net.cpp:165] Memory required for data: 642500464
I1106 20:10:00.735589 19047 layer_factory.hpp:77] Creating layer resP6_inter_resP6_inter_relu_0_split
I1106 20:10:00.735596 19047 net.cpp:100] Creating Layer resP6_inter_resP6_inter_relu_0_split
I1106 20:10:00.735600 19047 net.cpp:434] resP6_inter_resP6_inter_relu_0_split <- resP6_inter
I1106 20:10:00.735605 19047 net.cpp:408] resP6_inter_resP6_inter_relu_0_split -> resP6_inter_resP6_inter_relu_0_split_0
I1106 20:10:00.735611 19047 net.cpp:408] resP6_inter_resP6_inter_relu_0_split -> resP6_inter_resP6_inter_relu_0_split_1
I1106 20:10:00.735659 19047 net.cpp:150] Setting up resP6_inter_resP6_inter_relu_0_split
I1106 20:10:00.735666 19047 net.cpp:157] Top shape: 1 1024 5 5 (25600)
I1106 20:10:00.735668 19047 net.cpp:157] Top shape: 1 1024 5 5 (25600)
I1106 20:10:00.735671 19047 net.cpp:165] Memory required for data: 642705264
I1106 20:10:00.735673 19047 layer_factory.hpp:77] Creating layer resP6_inter_mbox_loc
I1106 20:10:00.735682 19047 net.cpp:100] Creating Layer resP6_inter_mbox_loc
I1106 20:10:00.735687 19047 net.cpp:434] resP6_inter_mbox_loc <- resP6_inter_resP6_inter_relu_0_split_0
I1106 20:10:00.735692 19047 net.cpp:408] resP6_inter_mbox_loc -> resP6_inter_mbox_loc
I1106 20:10:00.738647 19047 net.cpp:150] Setting up resP6_inter_mbox_loc
I1106 20:10:00.738662 19047 net.cpp:157] Top shape: 1 12 5 5 (300)
I1106 20:10:00.738667 19047 net.cpp:165] Memory required for data: 642706464
I1106 20:10:00.738672 19047 layer_factory.hpp:77] Creating layer resP6_inter_mbox_loc_perm
I1106 20:10:00.738682 19047 net.cpp:100] Creating Layer resP6_inter_mbox_loc_perm
I1106 20:10:00.738685 19047 net.cpp:434] resP6_inter_mbox_loc_perm <- resP6_inter_mbox_loc
I1106 20:10:00.738690 19047 net.cpp:408] resP6_inter_mbox_loc_perm -> resP6_inter_mbox_loc_perm
I1106 20:10:00.738795 19047 net.cpp:150] Setting up resP6_inter_mbox_loc_perm
I1106 20:10:00.738802 19047 net.cpp:157] Top shape: 1 5 5 12 (300)
I1106 20:10:00.738806 19047 net.cpp:165] Memory required for data: 642707664
I1106 20:10:00.738808 19047 layer_factory.hpp:77] Creating layer resP6_inter_mbox_loc_flat
I1106 20:10:00.738816 19047 net.cpp:100] Creating Layer resP6_inter_mbox_loc_flat
I1106 20:10:00.738818 19047 net.cpp:434] resP6_inter_mbox_loc_flat <- resP6_inter_mbox_loc_perm
I1106 20:10:00.738822 19047 net.cpp:408] resP6_inter_mbox_loc_flat -> resP6_inter_mbox_loc_flat
I1106 20:10:00.738847 19047 net.cpp:150] Setting up resP6_inter_mbox_loc_flat
I1106 20:10:00.738852 19047 net.cpp:157] Top shape: 1 300 (300)
I1106 20:10:00.738855 19047 net.cpp:165] Memory required for data: 642708864
I1106 20:10:00.738858 19047 layer_factory.hpp:77] Creating layer resP6_inter_mbox_conf
I1106 20:10:00.738867 19047 net.cpp:100] Creating Layer resP6_inter_mbox_conf
I1106 20:10:00.738870 19047 net.cpp:434] resP6_inter_mbox_conf <- resP6_inter_resP6_inter_relu_0_split_1
I1106 20:10:00.738876 19047 net.cpp:408] resP6_inter_mbox_conf -> resP6_inter_mbox_conf
I1106 20:10:00.745676 19047 net.cpp:150] Setting up resP6_inter_mbox_conf
I1106 20:10:00.745702 19047 net.cpp:157] Top shape: 1 63 5 5 (1575)
I1106 20:10:00.745707 19047 net.cpp:165] Memory required for data: 642715164
I1106 20:10:00.745712 19047 layer_factory.hpp:77] Creating layer resP6_inter_mbox_conf_perm
I1106 20:10:00.745720 19047 net.cpp:100] Creating Layer resP6_inter_mbox_conf_perm
I1106 20:10:00.745724 19047 net.cpp:434] resP6_inter_mbox_conf_perm <- resP6_inter_mbox_conf
I1106 20:10:00.745730 19047 net.cpp:408] resP6_inter_mbox_conf_perm -> resP6_inter_mbox_conf_perm
I1106 20:10:00.745836 19047 net.cpp:150] Setting up resP6_inter_mbox_conf_perm
I1106 20:10:00.745844 19047 net.cpp:157] Top shape: 1 5 5 63 (1575)
I1106 20:10:00.745846 19047 net.cpp:165] Memory required for data: 642721464
I1106 20:10:00.745849 19047 layer_factory.hpp:77] Creating layer resP6_inter_mbox_conf_flat
I1106 20:10:00.745854 19047 net.cpp:100] Creating Layer resP6_inter_mbox_conf_flat
I1106 20:10:00.745858 19047 net.cpp:434] resP6_inter_mbox_conf_flat <- resP6_inter_mbox_conf_perm
I1106 20:10:00.745864 19047 net.cpp:408] resP6_inter_mbox_conf_flat -> resP6_inter_mbox_conf_flat
I1106 20:10:00.745888 19047 net.cpp:150] Setting up resP6_inter_mbox_conf_flat
I1106 20:10:00.745893 19047 net.cpp:157] Top shape: 1 1575 (1575)
I1106 20:10:00.745895 19047 net.cpp:165] Memory required for data: 642727764
I1106 20:10:00.745898 19047 layer_factory.hpp:77] Creating layer odm_loc
I1106 20:10:00.745905 19047 net.cpp:100] Creating Layer odm_loc
I1106 20:10:00.745909 19047 net.cpp:434] odm_loc <- resP3_inter_mbox_loc_flat
I1106 20:10:00.745914 19047 net.cpp:434] odm_loc <- resP4_inter_mbox_loc_flat
I1106 20:10:00.745918 19047 net.cpp:434] odm_loc <- resP5_inter_mbox_loc_flat
I1106 20:10:00.745921 19047 net.cpp:434] odm_loc <- resP6_inter_mbox_loc_flat
I1106 20:10:00.745927 19047 net.cpp:408] odm_loc -> odm_loc
I1106 20:10:00.745954 19047 net.cpp:150] Setting up odm_loc
I1106 20:10:00.745959 19047 net.cpp:157] Top shape: 1 25500 (25500)
I1106 20:10:00.745960 19047 net.cpp:165] Memory required for data: 642829764
I1106 20:10:00.745963 19047 layer_factory.hpp:77] Creating layer odm_conf
I1106 20:10:00.745970 19047 net.cpp:100] Creating Layer odm_conf
I1106 20:10:00.745973 19047 net.cpp:434] odm_conf <- resP3_inter_mbox_conf_flat
I1106 20:10:00.745977 19047 net.cpp:434] odm_conf <- resP4_inter_mbox_conf_flat
I1106 20:10:00.745980 19047 net.cpp:434] odm_conf <- resP5_inter_mbox_conf_flat
I1106 20:10:00.745983 19047 net.cpp:434] odm_conf <- resP6_inter_mbox_conf_flat
I1106 20:10:00.745987 19047 net.cpp:408] odm_conf -> odm_conf
I1106 20:10:00.746011 19047 net.cpp:150] Setting up odm_conf
I1106 20:10:00.746016 19047 net.cpp:157] Top shape: 1 133875 (133875)
I1106 20:10:00.746019 19047 net.cpp:165] Memory required for data: 643365264
I1106 20:10:00.746021 19047 layer_factory.hpp:77] Creating layer arm_conf_reshape
I1106 20:10:00.746027 19047 net.cpp:100] Creating Layer arm_conf_reshape
I1106 20:10:00.746031 19047 net.cpp:434] arm_conf_reshape <- arm_conf
I1106 20:10:00.746037 19047 net.cpp:408] arm_conf_reshape -> arm_conf_reshape
I1106 20:10:00.746062 19047 net.cpp:150] Setting up arm_conf_reshape
I1106 20:10:00.746068 19047 net.cpp:157] Top shape: 1 6375 2 (12750)
I1106 20:10:00.746070 19047 net.cpp:165] Memory required for data: 643416264
I1106 20:10:00.746073 19047 layer_factory.hpp:77] Creating layer arm_conf_softmax
I1106 20:10:00.746078 19047 net.cpp:100] Creating Layer arm_conf_softmax
I1106 20:10:00.746080 19047 net.cpp:434] arm_conf_softmax <- arm_conf_reshape
I1106 20:10:00.746084 19047 net.cpp:408] arm_conf_softmax -> arm_conf_softmax
I1106 20:10:00.746682 19047 net.cpp:150] Setting up arm_conf_softmax
I1106 20:10:00.746695 19047 net.cpp:157] Top shape: 1 6375 2 (12750)
I1106 20:10:00.746697 19047 net.cpp:165] Memory required for data: 643467264
I1106 20:10:00.746701 19047 layer_factory.hpp:77] Creating layer arm_conf_flatten
I1106 20:10:00.746707 19047 net.cpp:100] Creating Layer arm_conf_flatten
I1106 20:10:00.746711 19047 net.cpp:434] arm_conf_flatten <- arm_conf_softmax
I1106 20:10:00.746716 19047 net.cpp:408] arm_conf_flatten -> arm_conf_flatten
I1106 20:10:00.746753 19047 net.cpp:150] Setting up arm_conf_flatten
I1106 20:10:00.746759 19047 net.cpp:157] Top shape: 1 12750 (12750)
I1106 20:10:00.746762 19047 net.cpp:165] Memory required for data: 643518264
I1106 20:10:00.746764 19047 layer_factory.hpp:77] Creating layer odm_conf_reshape
I1106 20:10:00.746769 19047 net.cpp:100] Creating Layer odm_conf_reshape
I1106 20:10:00.746773 19047 net.cpp:434] odm_conf_reshape <- odm_conf
I1106 20:10:00.746778 19047 net.cpp:408] odm_conf_reshape -> odm_conf_reshape
I1106 20:10:00.746803 19047 net.cpp:150] Setting up odm_conf_reshape
I1106 20:10:00.746807 19047 net.cpp:157] Top shape: 1 6375 21 (133875)
I1106 20:10:00.746809 19047 net.cpp:165] Memory required for data: 644053764
I1106 20:10:00.746812 19047 layer_factory.hpp:77] Creating layer odm_conf_softmax
I1106 20:10:00.746816 19047 net.cpp:100] Creating Layer odm_conf_softmax
I1106 20:10:00.746819 19047 net.cpp:434] odm_conf_softmax <- odm_conf_reshape
I1106 20:10:00.746824 19047 net.cpp:408] odm_conf_softmax -> odm_conf_softmax
I1106 20:10:00.747426 19047 net.cpp:150] Setting up odm_conf_softmax
I1106 20:10:00.747437 19047 net.cpp:157] Top shape: 1 6375 21 (133875)
I1106 20:10:00.747440 19047 net.cpp:165] Memory required for data: 644589264
I1106 20:10:00.747443 19047 layer_factory.hpp:77] Creating layer odm_conf_flatten
I1106 20:10:00.747448 19047 net.cpp:100] Creating Layer odm_conf_flatten
I1106 20:10:00.747452 19047 net.cpp:434] odm_conf_flatten <- odm_conf_softmax
I1106 20:10:00.747457 19047 net.cpp:408] odm_conf_flatten -> odm_conf_flatten
I1106 20:10:00.747483 19047 net.cpp:150] Setting up odm_conf_flatten
I1106 20:10:00.747488 19047 net.cpp:157] Top shape: 1 133875 (133875)
I1106 20:10:00.747490 19047 net.cpp:165] Memory required for data: 645124764
I1106 20:10:00.747493 19047 layer_factory.hpp:77] Creating layer detection_out
I1106 20:10:00.747510 19047 net.cpp:100] Creating Layer detection_out
I1106 20:10:00.747514 19047 net.cpp:434] detection_out <- odm_loc
I1106 20:10:00.747517 19047 net.cpp:434] detection_out <- odm_conf_flatten
I1106 20:10:00.747521 19047 net.cpp:434] detection_out <- arm_priorbox
I1106 20:10:00.747524 19047 net.cpp:434] detection_out <- arm_conf_flatten
I1106 20:10:00.747527 19047 net.cpp:434] detection_out <- arm_loc
I1106 20:10:00.747531 19047 net.cpp:408] detection_out -> detection_out
I1106 20:10:00.747586 19047 net.cpp:150] Setting up detection_out
I1106 20:10:00.747592 19047 net.cpp:157] Top shape: 1 1 1 7 (7)
I1106 20:10:00.747594 19047 net.cpp:165] Memory required for data: 645124792
I1106 20:10:00.747597 19047 layer_factory.hpp:77] Creating layer detection_eval
I1106 20:10:00.747606 19047 net.cpp:100] Creating Layer detection_eval
I1106 20:10:00.747608 19047 net.cpp:434] detection_eval <- detection_out
I1106 20:10:00.747612 19047 net.cpp:434] detection_eval <- label
I1106 20:10:00.747617 19047 net.cpp:408] detection_eval -> detection_eval
I1106 20:10:00.749692 19047 net.cpp:150] Setting up detection_eval
I1106 20:10:00.749703 19047 net.cpp:157] Top shape: 1 1 21 5 (105)
I1106 20:10:00.749706 19047 net.cpp:165] Memory required for data: 645125212
I1106 20:10:00.749709 19047 net.cpp:228] detection_eval does not need backward computation.
I1106 20:10:00.749713 19047 net.cpp:228] detection_out does not need backward computation.
I1106 20:10:00.749717 19047 net.cpp:228] odm_conf_flatten does not need backward computation.
I1106 20:10:00.749720 19047 net.cpp:228] odm_conf_softmax does not need backward computation.
…
